models/simple_financial_lora/checkpoint-50/adapter_model.safetensors (safetensors, 592848 bytes, 24 tensors)

base_model.model.transformer.h.0.attn.c_attn.lora_A.weight f4 [4, 768]
0	0x3c961257	0.018319292
1	0x3c4001e0	0.011719197
2	0x3ccdcd35	0.025122264
3	0xbd1a4159	-0.037659977
4	0x3c0b8d04	0.008517507
5	0x3a979995	0.0011566157
6	0x3cf9e164	0.030502982
7	0x3bcbbd49	0.006217633
8	0xbab035f1	-0.001344381
9	0xbc168f17	-0.009189389
10	0xbcb0d9c2	-0.02158821
11	0xbca3b510	-0.019983798
12	0x3cf7085a	0.03015535
13	0x3b86f345	0.0041183555
14	0xbd01a6b6	-0.03165313
15	0x3c9aa35f	0.01887673
16	0x3ccf8cdb	0.02533572
17	0xbc10845e	-0.008820621
18	0x3d03c959	0.032174442
19	0xba5ff030	-0.00085425656
20	0xbc8fc865	-0.01755161
21	0x3c12006d	0.008911234
22	0xbc1be4d1	-0.009515003
23	0xbbcd6f54	-0.006269375
24	0x3b01ef86	0.0019826605
25	0x3cb830a8	0.022484139
26	0xbc9c7a67	-0.019101335
27	0x3cf23c38	0.02956973
28	0x3c6d55da	0.014485801
29	0xba479d1a	-0.00076146575
30	0xbcd9e9dd	-0.026600773
31	0x3d035029	0.03205887
32	0xbc17ab06	-0.009257084
33	0x3bc1b5fe	0.0059115877
34	0xbd150fc4	-0.03639199
35	0xbc4f8d77	-0.012668005
36	0x3c26b300	0.010174513
37	0xbcc5d788	-0.024150625
38	0x3c3f54df	0.01167795
39	0x3c8c50c4	0.017128356
40	0x3cb0aecf	0.02156773
41	0x3c7861a5	0.015159999
42	0x3c95781f	0.018245755
43	0x3c13c34f	0.009018733
44	0x3bb5d835	0.0055494555
45	0xbb8e6ca1	-0.0043464457
46	0xbb4e19a1	-0.0031448381
47	0x3cc94e96	0.024573606
48	0xbaad32f7	-0.0013214041
49	0xbce40096	-0.02783231
50	0xba43c7f9	-0.0007468458
51	0x3cf1882d	0.029483879
52	0x3bf4e7c2	0.0074739167
53	0x3a15ff01	0.00057218975
54	0xbc0498f9	-0.008093112
55	0x3d1b131b	0.037860017
56	0xbc1b8b60	-0.009493679
57	0x3cc14179	0.02359079
58	0xbb73997a	-0.0037170337
59	0x3be4773e	0.0069722226
60	0xbced905f	-0.028999506
61	0x3d10ebdd	0.035381187
62	0xbd13a503	-0.03604604
63	0xbbf949a8	-0.0076076575
64	0x3cc3a3f7	0.023881895
65	0xbc0e304f	-0.00867851
66	0x3d0b82c5	0.03406026
67	0xbc40fab4	-0.011778522
68	0x3ca329ba	0.019917358
69	0xba29f936	-0.00064839737
70	0x3acd2d4a	0.0015653756
71	0xbb7b2675	-0.0038322483
72	0xbc413122	-0.011791499
73	0xbc72301f	-0.014781981
74	0x3c6fed80	0.014644027
75	0xbcd3417c	-0.025788061
76	0xbc1951dc	-0.009357896
77	0x3cd24bdb	0.025670936
78	0xbbf13f87	-0.0073623094
79	0x3c76b761	0.015058369
80	0x3c6999ee	0.014257891
81	0x3cd3301a	0.025779773
82	0xbc956a01	-0.018239023
83	0x3d01f42e	0.03172701
84	0xbce047c5	-0.027377972
85	0x3cc08505	0.023500929
86	0xbb58cef2	-0.0033082333
87	0x3c1c6286	0.009544974
88	0x3bfc0842	0.007691414
89	0x3d13ee08	0.036115676
90	0x3cf2c785	0.029636154
91	0xba82091a	-0.0009920925
92	0x3a997441	0.001170762
93	0x3ce4adf0	0.027914971
94	0xbcf334e8	-0.029688314
95	0xbc92b51a	-0.017908622
96	0xbcea445a	-0.028597046
97	0x3c88ace5	0.016684005
98	0x3c6f23a3	0.014595899
99	0xbccdcd70	-0.025122374
100	0xbbc7f746	-0.0061024753
101	0xbd056858	-0.032570213
102	0xbce438a8	-0.027859047
103	0x3a9987ea	0.0011713479
104	0x3c739c94	0.014868874
105	0x3ced2ca9	0.02895196
106	0xbc61653e	-0.013757048
107	0xbca14b30	-0.019689173
108	0xbbbd8231	-0.0057833423
109	0x3c1101bd	0.008850512
110	0x3adc1f63	0.0016794022
111	0xbca12620	-0.0196715
112	0xbc29dff8	-0.01036834
113	0x3c501a23	0.012701544
114	0x3c418c07	0.01181317
115	0xbba430d6	-0.0050107045
116	0x3be4b749	0.006979857
117	0x3be19dd5	0.00688527
118	0x3cd9788e	0.026546743
119	0x3cbe7d22	0.023253027
120	0xbc0b2a69	-0.008493998
121	0xbd05b902	-0.03264714
122	0x3aabd9da	0.001311119
123	0xba61eadf	-0.00086180674
124	0x398a23d1	0.00026348096
125	0xbc100d53	-0.008792239
126	0x3ced13b8	0.028940067
127	0xbc4befef	-0.012447341
128	0xbc1894ec	-0.0093128495
129	0xbcbeb3b1	-0.023279043
130	0x3c800fd0	0.01563254
131	0x3b297cd5	0.002586176
132	0xbcb4b8a5	-0.022060702
133	0xbccd0da0	-0.025030911
134	0x3cd76794	0.026294507
135	0x3cf96346	0.030442845
136	0xbc080a53	-0.008303243
137	0xbcdac45e	-0.026704963
138	0xbbdbe90d	-0.0067111314
139	0x3cf33824	0.029689856
140	0x3c96c7bd	0.01840579
141	0x3ce418ba	0.027843822
142	0xbd0b24be	-0.033970587
143	0x3c990611	0.01867965
144	0xbc82b34f	-0.015954642
145	0x3cff3cde	0.031156953
146	0xbb577dd7	-0.0032881403
147	0xbb2f53bf	-0.0026752797
148	0xbce87383	-0.028375393
149	0x3cc6c33d	0.024263019
150	0xbc87e83d	-0.016590232
151	0x3ae4206a	0.001740468
152	0x3c3bef12	0.011470573
153	0xbb34b7d4	-0.002757539
154	0xbc920c82	-0.01782823
155	0x3cdaf61d	0.026728684
156	0x3b2b4a8a	0.0026136958
157	0x3a53dcb7	0.00080819003
158	0xbd0bdd94	-0.03414686
159	0x3c9b24b0	0.018938392
160	0x3c86f312	0.016473327
161	0xbcb28cab	-0.021795591
162	0x3cd5114e	0.026009228
163	0xbc4e2fbf	-0.012584626
164	0x3cf89004	0.03034211
165	0xbd16113d	-0.036637533
166	0xbd08d20e	-0.03340345
167	0xbc34d79d	-0.011037734
168	0xbd046354	-0.03232129
169	0x3cd0fd44	0.025511391
170	0x3d115083	0.035477173
171	0x3d0122e7	0.031527426
172	0xbcf43b86	-0.02981354
173	0xbcea3078	-0.028587565
174	0xbd006c11	-0.03135306
175	0x3d031433	0.032001685
176	0xbcc3f244	-0.023919232
177	0x3c995e62	0.018721763
178	0xbcb35539	-0.021891223
179	0x3cee13de	0.029062208
180	0xbd0e6be5	-0.034770865
181	0xbb9e7fb4	-0.0048370007
182	0xbcefd9de	-0.029278692
183	0x3c2c8403	0.010529521
184	0xbc3a3654	-0.011365492
185	0x3b3ff9d0	0.0029293187
186	0xbc47c619	-0.012193226
187	0xbc1a8f8e	-0.00943364
188	0x3c7a9555	0.015294393
189	0x3985068b	0.00025372612
190	0x3c624f11	0.013812796
191	0x3bb03117	0.0053769457
192	0xbd02fbbd	-0.031978358
193	0x3b917ce4	0.004439937
194	0x3c83c2d3	0.01608411
195	0xbcfee62f	-0.03111562
196	0xbccd9ffd	-0.025100702
197	0x3c332041	0.010932983
198	0xbc80a3e6	-0.015703153
199	0xbcf03a48	-0.029324666
200	0xbd078608	-0.033086807
201	0xbc9f16bf	-0.019420026
202	0xbd076c70	-0.0330624
203	0xba47b027	-0.00076174963
204	0x3ca9d4fb	0.02073144
205	0xbbba8b9e	-0.005692913
206	0x3bd4b44b	0.006491219
207	0xbcf37d2d	-0.029722774
208	0xbbcbb0c1	-0.006216139
209	0xb95296ef	-0.00020083388
210	0xbb593e02	-0.0033148532
211	0x3d0517a8	0.032493263
212	0xbc81d0c7	-0.015846623
213	0xbc8c45d1	-0.017123135
214	0x3a73c996	0.0009299753
215	0x3a021cc4	0.0004963393
216	0xbb493626	-0.003070244
217	0xbc1dd025	-0.009632145
218	0xbcb8fdf5	-0.022582034
219	0xbad13875	-0.001596226
220	0xbc68f4f1	-0.014218555
221	0x3c3119bb	0.010809357
222	0x3ca0bd2b	0.019621452
223	0xbbc8e272	-0.00613051
224	0xbc88f857	-0.01671998
225	0xbcfd570d	-0.030925298
226	0x3be997d8	0.007128697
227	0x3cb4e58e	0.022082116
228	0x3aa166fb	0.0012314016
229	0x3d05acf9	0.032635663
230	0x3cbf2f5d	0.023338014
231	0xba8732cf	-0.0010314825
232	0x3bbd9ae1	0.0057862853
233	0x3ca98d47	0.02069725
234	0x3cdc29e3	0.026875442
235	0xbd0a1ab1	-0.03371686
236	0xbc9fef1d	-0.019523198
237	0x3cf8cfe6	0.030372571
238	0x3cbaf695	0.022822658
239	0x3c5c6c7e	0.013453601
240	0x3c88d6ff	0.01670408
241	0xbc063079	-0.008190268
242	0xbaee04b1	-0.0018159357
243	0x3d031a54	0.03200753
244	0xbc8f038d	-0.017457748
245	0xbcd57579	-0.026056992
246	0xbc1222d5	-0.008919437
247	0xbcd3867f	-0.025820969
248	0xbce71630	-0.028208822
249	0xbc9c74a2	-0.019098584
250	0x3ce72096	0.02821378
251	0xbcd32782	-0.025775675
252	0x3c1f2222	0.009712728
253	0x3baa5195	0.0051977136
254	0x3ccdc728	0.02511938
255	0xbd04b250	-0.032396615

base_model.model.transformer.h.0.attn.c_attn.lora_B.weight f4 [2304, 4]
0	0xba201a47	-0.0006107431
1	0x3a21f219	0.0006177738
2	0xb9af2772	-0.0003340799
3	0x39f43683	0.0004657992
4	0xba2c4fcd	-0.00065731705
5	0x393d4c34	0.00018052832
6	0x3a5cd7a1	0.0008424465
7	0x3a9017de	0.0010993441
8	0x39d39e6c	0.0004036309
9	0xb99103c7	-0.0002765937
10	0xb8d2bae5	-0.00010048392
11	0xba9cec4e	-0.001197228
12	0xb9543139	-0.00020236232
13	0xba55890d	-0.00081457273
14	0x39e7fd4b	0.0004424847
15	0x399f1783	0.0003034436
16	0x39081a70	0.0001297982
17	0xbaa36317	-0.0012465444
18	0x3aae134c	0.0013280897
19	0xb8b181ac	-8.464171e-05
20	0xb897fc2f	-7.247214e-05
21	0xba476ebe	-0.00076077494
22	0x3a845630	0.0010096487
23	0x395e2cbb	0.00021188233
24	0xb884bcf5	-6.3294465e-05
25	0x3994e553	0.0002839962
26	0xb8bb08e0	-8.918508e-05
27	0x39e4871d	0.00043588216
28	0xba146cbe	-0.0005661956
29	0x3a03c872	0.0005027122
30	0xb8402cf4	-4.5818233e-05
31	0x3aa150fd	0.0012307462
32	0x39317868	0.0001692489
33	0xb8d3c311	-0.00010097598
34	0x39e47094	0.00043571426
35	0xba71e647	-0.00092277344
36	0x3a2655da	0.00063451903
37	0xb815eb05	-3.5743247e-05
38	0x3886d544	6.429342e-05
39	0xba218c51	-0.00061625714
40	0xb8dac66a	-0.000104320075
41	0x390fb16c	0.00013703638
42	0xb9b71d49	-0.000349263
43	0x3a362853	0.0006948758
44	0x39f17b55	0.00046058992
45	0x39983077	0.00029027808
46	0x3963452d	0.00021674177
47	0xba3e4919	-0.0007258817
48	0x3900af04	0.0001227223
49	0xb975af8b	-0.00023430416
50	0x3a537470	0.0008066362
51	0xba1771f7	-0.0005777175
52	0x396086ca	0.00021412518
53	0x3944d802	0.00018772486
54	0xb9cf6beb	-0.00039562522
55	0xb9cd1ef2	-0.00039123703
56	0xb7a5b75d	-1.9754918e-05
57	0xb9bf8798	-0.00036531384
58	0x39eb6b6c	0.00044902728
59	0x3ab62b45	0.0013898393
60	0xb9e91073	-0.0004445348
61	0xba33fa23	-0.00068655814
62	0x39172630	0.00014414708
63	0x3a014f43	0.00049327704
64	0xba0d4c41	-0.0005390086
65	0x388352c5	6.261984e-05
66	0x39e9ecb8	0.00044617592
67	0x3a920fed	0.0011143662
68	0xba1635e0	-0.0005730074
69	0xb9533327	-0.00020141584
70	0x39e17e56	0.00043009472
71	0x3a5eda13	0.00085011235
72	0xb98f835d	-0.0002737296
73	0xba8af06a	-0.0010600213
74	0x3ab34d1e	0.0013679599
75	0x3a16ee7c	0.0005757583
76	0x38c7ca65	9.5267584e-05
77	0xba09e695	-0.00052604947
78	0x3a3212c6	0.00067929586
79	0xb8bbe673	-8.9597794e-05
80	0x39155191	0.00014240133
81	0x39dd8bcf	0.0004225657
82	0xba36a79e	-0.0006967726
83	0xba0cfeda	-0.0005378552
84	0x3986c63b	0.00025706165
85	0x3a887721	0.001041148
86	0xba94e334	-0.0011359216
87	0xb8803ff5	-6.1154286e-05
88	0xba2c2dd1	-0.00065681065
89	0xba74079d	-0.0009308996
90	0x3a9d8e43	0.0012020547
91	0x3ab2ce2d	0.0013641767
92	0x38905e1a	6.883983e-05
93	0x3a6e7547	0.0009096455
94	0xba701914	-0.00091590104
95	0xba426ea9	-0.00074170023
96	0x398b8fbf	0.00026619245
97	0x3a18f1cf	0.0005834372
98	0x3990beb1	0.00027607896
99	0x3a366bff	0.00069588417
100	0xb9c62ba8	-0.0003779803
101	0xb99e48a3	-0.00030190227
102	0x39bd900b	0.0003615621
103	0x3a7d0060	0.000965124
104	0xba178880	-0.0005780533
105	0xba646145	-0.0008712004
106	0x3a5b6737	0.0008369567
107	0x3ac230b5	0.0014815541
108	0xb98afc73	-0.000265095
109	0xba29505d	-0.00064588134
110	0x3a6ce0f1	0.00090362044
111	0x3a68bf81	0.0008878634
112	0xb9fce866	-0.00048238336
113	0xba2eeb5c	-0.00066726445
114	0x3a6f626a	0.00091317913
115	0x3a67705e	0.00088286947
116	0xb9c02804	-0.00036650908
117	0xba48e2e6	-0.0007663205
118	0x3aa72ebe	0.0012755019
119	0x3a87cb8e	0.0010360347
120	0xb9de41ec	-0.00042392255
121	0x3aabc4c1	0.0013104902
122	0xba65fbb3	-0.0008773163
123	0xb9a1e35c	-0.0003087771
124	0xb9296be9	-0.00016157296
125	0xba750b63	-0.0009347705
126	0x3a2c7e3c	0.00065800897
127	0x39898821	0.000262321
128	0xba50ef91	-0.00079702685
129	0x3a1cad5f	0.0005976762
130	0xba1b17ab	-0.00059163076
131	0xb98dcc0c	-0.00027045642
132	0x398127c8	0.00024634437
133	0xba74861e	-0.00093278463
134	0x3a84a7a8	0.0010120766
135	0xb945e309	-0.00018871961
136	0x3a43ae56	0.0007464638
137	0xba17434c	-0.0005770221
138	0x39ea0b38	0.00044640317
139	0xba4c360c	-0.0007790036
140	0x3937a383	0.00017513153
141	0x39139afb	0.00014076747
142	0xb9437b2e	-0.00018642537
143	0xb9f6104a	-0.00046932913
144	0x39e83bc6	0.00044295023
145	0xb9e9d745	-0.0004460161
146	0x39661766	0.00021943226
147	0xba0d4530	-0.0005389033
148	0x395b9ced	0.00020943927
149	0x39b31f95	0.0003416507
150	0xba81038d	-0.0009842977
151	0x3a1b0208	0.00059130834
152	0x3a16f666	0.0005758762
153	0x3a06505c	0.0005123669
154	0xb685d0d0	-3.988018e-06
155	0xba02a0dd	-0.0004983077
156	0xb9ee6500	-0.00045470148
157	0xb9a3effa	-0.0003126858
158	0x3a9df606	0.001205147
159	0x3a90c3e1	0.0011044705
160	0xb941e055	-0.00018489485
161	0xba9a99c9	-0.0011795099
162	0x39e3c778	0.0004344543
163	0x392ebaf8	0.00016663584
164	0xba604952	-0.00085558475
165	0x3934888e	0.00017217008
166	0x39c4408c	0.00037432124
167	0x3aa053cb	0.0012232004
168	0xba3cb611	-0.0007198761
169	0xb98acfc2	-0.00026476203
170	0x395f95de	0.00021322767
171	0x3a8ccea8	0.0010742741
172	0x3a4f9983	0.00079192984
173	0x3aa2d1f3	0.0012422189
174	0xbaa41a89	-0.0012520115
175	0xba8af269	-0.0010600808
176	0x39b3acca	0.00034270278
177	0x39bed041	0.00036394785
178	0xba39eeca	-0.0007092772
179	0xba8233d2	-0.0009933657
180	0xba367b1d	-0.00069610943
181	0x3a55ed18	0.0008160635
182	0x39498526	0.00019218455
183	0x3aaeb87b	0.0013330126
184	0xba12f9be	-0.00056066725
185	0xb832c4ec	-4.2621905e-05
186	0x3a5b36fc	0.00083623803
187	0x3a832386	0.0010005094
188	0xb9bccfe1	-0.00036013036
189	0x3a91469d	0.0011083666
190	0xba694d2c	-0.0008899744
191	0x37d7d1b2	2.5727644e-05
192	0x3a29b97f	0.00064744795
193	0x397e88c8	0.00024274283
194	0xba5f0e2f	-0.00085088884
195	0xb99689d3	-0.00028712917
196	0x38aa32d1	8.115697e-05
197	0xba36de11	-0.00069758395
198	0x3a4ba8aa	0.00077689684
199	0x39b92798	0.0003531545
200	0x3711b4fe	8.684814e-06
201	0x3a6f5fcc	0.00091314013
202	0xba81d4d4	-0.0009905347
203	0xb80d3818	-3.366926e-05
204	0xb863f345	-5.434758e-05
205	0xb90de378	-0.00013531547
206	0xb711a451	-8.680931e-06
207	0x3973ed53	0.00023262696
208	0x3a1324e3	0.00056131015
209	0xb69694ea	-4.4876842e-06
210	0xba3dd925	-0.0007242135
211	0xbaa1ed61	-0.001235407
212	0x38ba6dcf	8.8896246e-05
213	0x3ac20676	0.0014802951
214	0xbab69f64	-0.0013933
215	0xba26faa9	-0.0006369749
216	0xba18bfbc	-0.00058269105
217	0xba608ceb	-0.000856592
218	0x3aaafc47	0.0013045155
219	0x3a97361d	0.0011536513
220	0x3a0b1aed	0.00053064415
221	0xba1fbcf3	-0.0006093524
222	0x3937ce04	0.00017528987
223	0xb9b1ab37	-0.00033887636
224	0xb9ecf99f	-0.0004519941
225	0x3a740c47	0.0009309691
226	0xb98f7b0b	-0.0002736676
227	0x3a95ae62	0.0011419768
228	0xb9d54eb9	-0.0004068518
229	0xba006bd9	-0.0004898883
230	0x3a2a3d74	0.00064941426
231	0x3a5d9579	0.0008452754
232	0x3a697afc	0.0008906571
233	0x392da052	0.0001655829
234	0xba3ad61a	-0.00071272405
235	0xbabad49a	-0.0014254034
236	0xb9e2b3bb	-0.0004323999
237	0x39d3977b	0.00040357918
238	0x3a09746d	0.0005243484
239	0x39c190ca	0.00036919705
240	0xba5e99b9	-0.00084915344
241	0xb9956532	-0.0002849489
242	0x3995848e	0.00028518256
243	0x3a806477	0.0009795566
244	0xb97bdb74	-0.00024018978
245	0xb7ffb61f	-3.0483176e-05
246	0x38ac6d34	8.22194e-05
247	0x3a296676	0.0006462106
248	0xb9027da4	-0.00012444571
249	0x3a61f315	0.0008619291
250	0xba6688b0	-0.0008794172
251	0xba560145	-0.00081636413
252	0x390f32d8	0.00013656483
253	0xba79eb69	-0.0009533675
254	0x3a1f4905	0.00060762494
255	0xb812bb76	-3.49837e-05

base_model.model.transformer.h.1.attn.c_attn.lora_A.weight f4 [4, 768]
0	0xbc0d4c70	-0.008624181
1	0xbce46a19	-0.027882623
2	0x3d07fc14	0.033199385
3	0x3d003fed	0.031310964
4	0x3b9b01c7	0.0047304365
5	0x3cdc67bf	0.026904939
6	0x3c7aab83	0.015299681
7	0xbd0778e0	-0.03307426
8	0x399afb16	0.00029560243
9	0x3ca24f13	0.019813096
10	0x3c3fe33e	0.011711894
11	0x3c53fc6d	0.012938601
12	0xbbde397e	-0.006781756
13	0x3c254a42	0.010088505
14	0xbcd0b409	-0.025476472
15	0xbcfbcc44	-0.03073705
16	0x3d0dffa5	0.03466763
17	0x3bf70b2a	0.0075391727
18	0xbc2f1f1f	-0.010688572
19	0x3cfb625b	0.030686548
20	0x3c90d4e5	0.017679641
21	0xbc0c5349	-0.008564779
22	0xbcaa020d	-0.020752931
23	0x3c48a73d	0.012246904
24	0x3cb309cb	0.021855256
25	0xbce040eb	-0.027374705
26	0xbcde89b3	-0.02716527
27	0xbc0a8595	-0.0084547
28	0xba64544a	-0.000871007
29	0xbca0d99f	-0.01963502
30	0xb99da3a7	-0.00030067304
31	0x3ae2f097	0.0017314133
32	0x3d0688dd	0.032845367
33	0x3c545396	0.012959382
34	0x3c5d2548	0.013497658
35	0xbd13a896	-0.036049448
36	0xbca4fb29	-0.020139294
37	0xbcfaf525	-0.030634472
38	0x3c3b76b6	0.011441877
39	0xbce0a246	-0.027421128
40	0x3c4fe86e	0.012689693
41	0xbc214cf6	-0.009845009
42	0xbcab625d	-0.020920927
43	0x3c1968a7	0.00936333
44	0x3ae3ee48	0.0017389739
45	0x3d0611b9	0.032731745
46	0x3d095630	0.03352946
47	0xbbd24309	-0.0064166826
48	0x3ca45ab0	0.020062774
49	0x3cfccf7d	0.030860657
50	0xbd07d912	-0.033166
51	0x3b87750b	0.0041338257
52	0x3d05a0cf	0.032624062
53	0xbc98a5c1	-0.018633725
54	0xbcd9bc5d	-0.026579076
55	0xbc85981e	-0.016307887
56	0x3c54022d	0.012939972
57	0x3c1ba248	0.00949914
58	0x3cb48a1a	0.022038508
59	0xbc8c722b	-0.017144283
60	0xbd1125fd	-0.03543662
61	0xbca6a51d	-0.020342404
62	0xbccc77d6	-0.024959486
63	0x3ab12ee2	0.0013518
64	0x3c6ce6b3	0.0144593
65	0xbd0a2f4d	-0.033736516
66	0xbcc77399	-0.024347113
67	0xbcb34e8f	-0.021888046
68	0xbcd8e23f	-0.02647507
69	0x3c37a5ac	0.011208933
70	0xbcca7122	-0.024712149
71	0xbca46cdd	-0.020071441
72	0xbcc240b7	-0.023712499
73	0xbc2123a2	-0.009835156
74	0x3cb2c2af	0.021821348
75	0x3c85d7ab	0.01633819
76	0x3c78b4d5	0.0151798325
77	0x3bcf37f3	0.0063238083
78	0x3cb99323	0.022653168
79	0x3d0bd27b	0.034136277
80	0xbcf3673f	-0.029712318
81	0x3c3c25b6	0.0114836
82	0x3c96f0d0	0.018425375
83	0x3b1597af	0.0022826006
84	0x3ca20135	0.019775966
85	0x3cdaee1d	0.02672487
86	0x3ce505f1	0.027956935
87	0xbcde8025	-0.027160713
88	0x3d09ea0e	0.033670478
89	0x3d11b4a6	0.03557267
90	0xbbbdd7ef	-0.0057935636
91	0x3d03a2cb	0.032137673
92	0xbc6e0d72	-0.014529573
93	0xbd063f26	-0.032775067
94	0x3cd37497	0.02581243
95	0xbd026906	-0.03183844
96	0x3c94e083	0.018173462
97	0xbcf1934c	-0.029489182
98	0xbcab969f	-0.020945845
99	0xbca94f7b	-0.020667782
100	0xbc5bd126	-0.013416564
101	0xbca80bbf	-0.020513413
102	0xbcf609f8	-0.03003405
103	0x3c9000bc	0.017578475
104	0x3d08fae9	0.03344241
105	0x3c9ac44c	0.01889243
106	0x3c7f5483	0.015584114
107	0xbd0d11f6	-0.034440957
108	0x3b86c49e	0.004112794
109	0x3d10204f	0.035187062
110	0x3c3d05b2	0.011537002
111	0x3cf51846	0.029918801
112	0xbca2c088	-0.019867197
113	0xbce31bee	-0.027723279
114	0x3cbfa555	0.023394266
115	0x3abdd6f0	0.0014483612
116	0xbc99dc78	-0.018781886
117	0x3c92302c	0.017845236
118	0xbc3c38d1	-0.011488155
119	0xbd015b88	-0.03158143
120	0xbd030ead	-0.031996418
121	0xbce1bb2d	-0.027555073
122	0xbc099d7f	-0.008399366
123	0xbb22827f	-0.002479702
124	0x3b89c0a9	0.004203875
125	0xbcc091b5	-0.023506979
126	0xbcfa390e	-0.030544784
127	0x3c9e08dd	0.019291336
128	0x3bee83cb	0.0072788945
129	0x3cc405a2	0.023928467
130	0x3a9b93d0	0.0011869613
131	0x3c03b97a	0.0080398265
132	0x3d009d29	0.03139988
133	0x3c1a7e41	0.009429515
134	0x3cd7ce32	0.026343439
135	0xbcb5cee6	-0.022193383
136	0x3ce9a9c0	0.028523326
137	0x3c04e7d0	0.008111909
138	0xbcda490d	-0.026646161
139	0xbbf8c94c	-0.007592356
140	0xbca931db	-0.020653656
141	0x3c980610	0.018557578
142	0x3d165042	0.036697634
143	0x3c561b98	0.013068102
144	0xbca1a89a	-0.019733716
145	0x3ab9046c	0.0014115698
146	0xbb8c7a5c	-0.0042870473
147	0xbd0071e7	-0.031358626
148	0x3aae5cbc	0.0013302783
149	0x3cf602ed	0.030030692
150	0x3cc23e46	0.023711335
151	0xbbe67571	-0.007033043
152	0x3ccfe75c	0.025378875
153	0x3cf7d454	0.030252613
154	0x3cebba8f	0.028775482
155	0x3cd9bc81	0.026579143
156	0x3c8063d1	0.015672596
157	0xbcac722a	-0.021050531
158	0x3d0bf2ae	0.034166984
159	0xbc3744b6	-0.011185816
160	0xbc0f807d	-0.008758661
161	0x3c27117e	0.010197042
162	0xbcd046f6	-0.025424462
163	0xbc6aaf9f	-0.014324098
164	0x3cc73996	0.024319451
165	0x3a8b5797	0.0010630962
166	0x3cad2c3d	0.021139259
167	0x3d0d4882	0.034492977
168	0xbc886b22	-0.016652647
169	0xbc6aaca4	-0.014323387
170	0x3c5f6d2e	0.01363687
171	0xbc06c5d3	-0.008225876
172	0x3d07b58f	0.033132132
173	0xbcb48866	-0.022037696
174	0x3c7a1b15	0.015265246
175	0xbc874ff1	-0.016517611
176	0xbc6144d9	-0.013749325
177	0xbb87f23e	-0.0041487506
178	0x3c4b6ebd	0.012416539
179	0x3c690734	0.014222909
180	0xbc629ff7	-0.013832084
181	0x3c523c2c	0.012831729
182	0x3c00f033	0.007869768
183	0x3c556da9	0.013026633
184	0x3cb75ba2	0.022382561
185	0xbd0a14e9	-0.033711348
186	0x3941b318	0.00018472632
187	0xbc082ada	-0.008310998
188	0xbd070f6d	-0.032973696
189	0x3c7be2c5	0.01537389
190	0x3c9cbb15	0.019132176
191	0x3d18e7a3	0.03733028
192	0xbb8ef660	-0.0043628663
193	0x3cca5fff	0.024703978
194	0xbccf45c6	-0.025301825
195	0x399143ce	0.00027707074
196	0xbd0f17e9	-0.034934912
197	0x3b517faf	0.0031966974
198	0xbcd925f8	-0.026507363
199	0x3c761e93	0.015021938
200	0x3d0a82ed	0.033816267
201	0xbbd1f8e2	-0.006407843
202	0xbd0fde6d	-0.03512423
203	0xba04d783	-0.0005067514
204	0x3bbf1977	0.005831893
205	0xbad2a3b8	-0.001607052
206	0xbcb2bd64	-0.021818824
207	0xbc0661dd	-0.008202043
208	0x3d0e1100	0.03468418
209	0xbc812d00	-0.015768528
210	0xbcdd93cd	-0.027048016
211	0x3ce21b5f	0.027600942
212	0x3d161c0f	0.036647853
213	0x3cf1ce2c	0.029517256
214	0xbc16138e	-0.009159936
215	0xbc8b19ae	-0.016980018
216	0xbd0a7716	-0.033804975
217	0xbce24c41	-0.027624251
218	0xbcb61f7b	-0.022231808
219	0xbcd5ea93	-0.02611283
220	0x3bca79af	0.0061790566
221	0xbcd96125	-0.02653558
222	0x3af605d5	0.0018770049
223	0x3d0a19dc	0.033716068
224	0x3d03491c	0.032052144
225	0x3bef3e23	0.0073011084
226	0xbca64d2d	-0.020300472
227	0x3c26d92a	0.010183612
228	0xbd05b322	-0.032641537
229	0x3c802d20	0.015646517
230	0xbc5d7fe5	-0.013519262
231	0xbc9e7999	-0.019345092
232	0xbd0955c8	-0.033529073
233	0xbca839ae	-0.020535316
234	0xbcd4916e	-0.025948253
235	0xbcbb69b6	-0.022877555
236	0xbaee0d05	-0.0018161839
237	0x3c3d4545	0.01155216
238	0x3c07cf28	0.008289136
239	0x3c4fa9b6	0.01267474
240	0xbca39106	-0.019966614
241	0x3c7847c4	0.015153829
242	0xbcc68104	-0.024231441
243	0xbc68913e	-0.014194785
244	0xbaec7b2c	-0.0018042079
245	0xbb094155	-0.0020943482
246	0xbcc3b259	-0.023888754
247	0xbcf83755	-0.030299822
248	0xbc28e731	-0.010309027
249	0x3ca16c13	0.019704854
250	0xbc96cea9	-0.01840909
251	0xbcee4d86	-0.0290897
252	0xbc5e1d18	-0.013556741
253	0x3d0baf1c	0.034102544
254	0x3cabdd64	0.02097959
255	0xbc82e0d0	-0.01597634

base_model.model.transformer.h.1.attn.c_attn.lora_B.weight f4 [2304, 4]
0	0xb9009072	-0.00012260841
1	0x3822c138	3.880376e-05
2	0x3826c02b	3.9756454e-05
3	0x39991179	0.00029195452
4	0x39be1679	0.00036256367
5	0xb9ad9394	-0.00033107086
6	0x3900bde3	0.0001227777
7	0xb93d7035	-0.00018066245
8	0x36f0916b	7.1694863e-06
9	0xb8a0a116	-7.659399e-05
10	0x3a019888	0.00049436884
11	0xb8289852	-4.019618e-05
12	0xb9f8b5a5	-0.00047437582
13	0x3a2a2b36	0.0006491424
14	0x3a29457b	0.0006457192
15	0x39b5165f	0.00034539678
16	0xb6c673a4	-5.914322e-06
17	0xb91e6b46	-0.00015108017
18	0x38da7b3a	0.00010418003
19	0x3941b29a	0.00018472449
20	0x39cc92f0	0.0003901939
21	0xba157dc5	-0.000570264
22	0xb9322e97	-0.00016992759
23	0xba52ecc9	-0.0008046148
24	0xba0c9470	-0.0005362695
25	0x39f9d6e0	0.00047653075
26	0x38144b41	3.5356035e-05
27	0x39b69580	0.0003482513
28	0x3a0a5cd2	0.00052781135
29	0xb9bde2b0	-0.00036217785
30	0xb7d5ed53	-2.5502091e-05
31	0xb94f6c20	-0.00019781338
32	0x39d31505	0.00040260717
33	0xba02bb72	-0.0004987038
34	0xba2db0fc	-0.0006625799
35	0x38995749	7.311867e-05
36	0x39283853	0.00016042711
37	0xb89d9d7f	-7.515679e-05
38	0xb6eb4afe	-7.012276e-06
39	0xb9bf9ea5	-0.00036548558
40	0xb865c558	-5.4781645e-05
41	0x387cbf8a	6.0259867e-05
42	0x3929a506	0.00016178572
43	0x38d63729	0.000102145896
44	0x38eb637c	0.000112242036
45	0x398dfaaf	0.0002708039
46	0x39d16148	0.00039936067
47	0x39a268d5	0.00030977154
48	0x34e44160	4.2515876e-07
49	0xba0babf8	-0.00053280545
50	0xb98051de	-0.00024475058
51	0xba25dcf4	-0.0006327175
52	0x39a443d1	0.00031331045
53	0xba4b7f1b	-0.00077627756
54	0xb9a04b83	-0.0003057384
55	0xb9c9f6f4	-0.00038521702
56	0x39ea7ca8	0.00044724834
57	0xb9dbde74	-0.00041936676
58	0xba21dd0d	-0.0006174602
59	0xb88bcd52	-6.6662804e-05
60	0x3a4abb3b	0.0007733588
61	0xba1d6efe	-0.0006005614
62	0xb9af405c	-0.00033426553
63	0xb97ae21b	-0.00023926089
64	0x39cf5d98	0.0003955185
65	0xba2bf20c	-0.00065592
66	0x39c5ef08	0.0003775286
67	0x39c78514	0.0003805539
68	0xb91911b7	-0.00014597816
69	0x391999b7	0.0001464848
70	0x39b460dd	0.00034404444
71	0x38e5cb90	0.000109574874
72	0x38235c19	3.8948e-05
73	0x382f210e	4.1754036e-05
74	0x3a00567c	0.00048956997
75	0xba2f48bb	-0.0006686558
76	0x39091af1	0.00013075375
77	0xb9d59aab	-0.00040741762
78	0x3a1807e0	0.00057995133
79	0x38beebfa	9.10386e-05
80	0xb983f996	-0.00025172223
81	0xb8be6ad0	-9.0798014e-05
82	0xb90a0ad4	-0.0001316474
83	0xb94a1291	-0.00019271138
84	0xb8068c21	-3.2078595e-05
85	0x39a979b8	0.0003232488
86	0x3a22c7d2	0.0006209585
87	0x39f2ecd4	0.00046334288
88	0x3a8f2515	0.0010921085
89	0xb9c1276d	-0.00036841203
90	0xb99901bc	-0.00029183726
91	0xb91434b7	-0.00014134018
92	0x370d3df0	8.418676e-06
93	0xb9f5b9d5	-0.00046868497
94	0x3911bf4b	0.0001389954
95	0x34fd7b00	4.7214417e-07
96	0x3876ff3c	5.8888676e-05
97	0x39874595	0.0002580105
98	0x386ba53f	5.6182264e-05
99	0xb8064f77	-3.2022097e-05
100	0xb97710cd	-0.00023562014
101	0xb9d3ab15	-0.00040372522
102	0x39168ff2	0.00014358739
103	0x397d266f	0.00024142278
104	0x393fe178	0.00018299173
105	0x38033d6d	3.129004e-05
106	0x3a015daf	0.00049349194
107	0xb7dfd2be	-2.6681806e-05
108	0xba04917e	-0.00050570804
109	0x38b4b4da	8.616755e-05
110	0x38f3d47c	0.00011626721
111	0xb9c65857	-0.0003783132
112	0x38d4b162	0.00010141988
113	0xb92d3cee	-0.00016521264
114	0xb7972261	-1.8016612e-05
115	0xb96ba704	-0.00022473565
116	0xb8116dfe	-3.4673132e-05
117	0x36650b1b	3.4130123e-06
118	0x38b9bd28	8.8567205e-05
119	0x39586aed	0.00020639198
120	0xb9615d53	-0.00021492438
121	0x394edb7a	0.00019727452
122	0xb8790cdd	-5.9378206e-05
123	0xb980d382	-0.00024571648
124	0xb9535a89	-0.00020156255
125	0x39361e15	0.00017368079
126	0xb890ef12	-6.9109854e-05
127	0x398c4655	0.00026755282
128	0x396a0c3a	0.00022320534
129	0xb98ff17c	-0.00027455005
130	0xb9b64bb1	-0.0003477014
131	0xb9814236	-0.00024654128
132	0xb8b5b235	-8.663946e-05
133	0xb8078566	-3.2310745e-05
134	0xb7a78ac2	-1.9972565e-05
135	0x39b943fd	0.00035336605
136	0x3a3db1f2	0.0007236294
137	0xba0d1916	-0.0005382461
138	0xb9e05126	-0.0004278507
139	0xba015281	-0.00049332535
140	0x39ecb646	0.00045149232
141	0xb9234c2e	-0.0001557327
142	0xb9b7918b	-0.00035012918
143	0xb98774cf	-0.00025836236
144	0xb8fca4f4	-0.00012047021
145	0xb9eace59	-0.000447857
146	0x37d44052	2.530232e-05
147	0x38ea8e93	0.00011184546
148	0x3a109d44	0.00055165985
149	0xb9ea34e4	-0.00044671365
150	0xba081b03	-0.00051920133
151	0xb9a27c06	-0.00030991453
152	0xb9c72632	-0.00037984696
153	0x392870f8	0.00016063813
154	0x398a987a	0.00026435015
155	0x39936a4b	0.0002811722
156	0x39385c49	0.00017581986
157	0xb7c13e65	-2.3036448e-05
158	0x39d1f571	0.00040046455
159	0xb828b67b	-4.022427e-05
160	0x3883366f	6.256706e-05
161	0xb9314da1	-0.00016908954
162	0xb930ca01	-0.0001685992
163	0xb9952a31	-0.0002845093
164	0xb9179572	-0.00014456155
165	0xb728aa1b	-1.0053186e-05
166	0xb9af48b2	-0.00033432763
167	0x39ad558c	0.0003306087
168	0x3812e43e	3.502168e-05
169	0xb84b6bde	-4.849943e-05
170	0xb7086fc4	-8.132254e-06
171	0xb9973828	-0.00028842804
172	0xb8fa4fdb	-0.00011935803
173	0xb832efe6	-4.266193e-05
174	0x3a1306f2	0.000560864
175	0xb894c2dd	-7.093486e-05
176	0xb9c83a6b	-0.00038190497
177	0x3a72b43c	0.00092584244
178	0x396fcadd	0.00022868389
179	0x3a36b26d	0.00069693365
180	0x387a2c1f	5.9645736e-05
181	0xb9fd8c0d	-0.00048360266
182	0xb9fc9f8a	-0.0004818405
183	0xb98708b2	-0.00025755685
184	0xb521f210	-6.032942e-07
185	0x39e00342	0.00042727037
186	0x39652fa5	0.00021856891
187	0xb83f84f8	-4.5661785e-05
188	0xb8c445b3	-9.358991e-05
189	0x39adec8a	0.00033173367
190	0x39a24f4c	0.0003095813
191	0x393f9f0e	0.00018274432
192	0x39244874	0.0001566725
193	0xb9a9471a	-0.00032287167
194	0xb8e97aca	-0.00011133177
195	0xb9868cf1	-0.0002566348
196	0x3a0b521f	0.0005314666
197	0xba12eb8f	-0.0005604559
198	0xb9d255b8	-0.00040118187
199	0xb8550210	-5.078508e-05
200	0xba20c9db	-0.00061335944
201	0x39c7d443	0.00038114385
202	0x382c7e91	4.112587e-05
203	0x3828c0b1	4.023378e-05
204	0x396d8937	0.00022653198
205	0xb98ec42e	-0.00027230516
206	0xba113ffd	-0.0005540846
207	0xb89f04c4	-7.5825985e-05
208	0x3980d712	0.00024574302
209	0xba2f7e60	-0.00066945516
210	0x361016e0	2.1470987e-06
211	0xb97265e0	-0.0002311687
212	0x3a447526	0.0007494263
213	0xb9a2bccc	-0.00031039712
214	0xba080344	-0.0005188475
215	0xb9b0c2b8	-0.00033714413
216	0x36485b07	2.9855307e-06
217	0xb7f42d8f	-2.9108282e-05
218	0xba07cc2f	-0.0005180267
219	0xb8ab320c	-8.163237e-05
220	0xb971bf62	-0.00023054847
221	0xb82460bd	-3.919074e-05
222	0x38e030ab	0.000106902175
223	0xb9b05660	-0.0003363369
224	0x394341cd	0.00018621162
225	0x361b834e	2.317323e-06
226	0xba137b84	-0.000562601
227	0xb9540b8d	-0.00020222199
228	0x3801833b	3.0878215e-05
229	0xb849fae4	-4.8155795e-05
230	0x39114fb7	0.00013857974
231	0x39b9e223	0.00035454435
232	0x38c32517	9.305233e-05
233	0xb98821e0	-0.0002596518
234	0xb886bb51	-6.424508e-05
235	0xb83887a6	-4.399535e-05
236	0xb9e518b4	-0.0004369669
237	0x38919c16	6.943212e-05
238	0x38acfd4a	8.248778e-05
239	0xb98cd9fa	-0.00026865286
240	0x3939f65d	0.00017734752
241	0xba3e239d	-0.00072532316
242	0xba1f51f6	-0.0006077582
243	0xb8785828	-5.920991e-05
244	0xb8be5ed9	-9.077573e-05
245	0x39f3b1d4	0.00046481064
246	0x39b73020	0.00034940336
247	0xb8013700	-3.080722e-05
248	0x39f368ed	0.00046426748
249	0x37c668a6	2.365217e-05
250	0xb9836c7d	-0.00025067097
251	0xba3d4dbf	-0.0007221363
252	0xb9e421f2	-0.0004351284
253	0x3a1d41df	0.000599889
254	0x39671a9a	0.00022039787
255	0x399cb6ca	0.00029890827

base_model.model.transformer.h.10.attn.c_attn.lora_A.weight f4 [4, 768]
0	0xbd022fbd	-0.031783808
1	0xbc40bf78	-0.0117644
2	0xbc40ff8f	-0.01177968
3	0xbb8188fc	-0.0039530974
4	0xbc16167e	-0.009160636
5	0x3ca03cb9	0.019560205
6	0x3d13a0bf	0.03604197
7	0xb999f400	-0.00029364228
8	0xb93a11f8	-0.00017745036
9	0x3cec8359	0.028871225
10	0xbc065b94	-0.008200545
11	0x3cfac7ac	0.03061279
12	0xbccb11e8	-0.024788812
13	0xbae23e7d	-0.0017261055
14	0xbcd0921e	-0.0254603
15	0xbcb589ad	-0.022160375
16	0x3bb99ea8	0.0056646653
17	0x3cf41d21	0.029799046
18	0x3c9967e0	0.01872629
19	0x3bddfbff	0.006774425
20	0x3b415d42	0.002950505
21	0xbcbda4f2	-0.023149941
22	0x3c6d5d3c	0.014487561
23	0x3c1d3f1a	0.009597564
24	0xbc68b970	-0.014204368
25	0xbd0c4791	-0.03424794
26	0x3cf90f21	0.030402722
27	0x3b7331cb	0.0037108536
28	0x3cec1a68	0.028821185
29	0x3acc7422	0.0015598575
30	0xbb011315	-0.0019695212
31	0xbccc4b1d	-0.02493816
32	0x3b353c3e	0.0027654315
33	0xbc27f11a	-0.010250354
34	0xbcadb5d9	-0.021204876
35	0x3ceba4d1	0.028765114
36	0x3c8bf4b1	0.017084451
37	0x3c9a6c8e	0.018850591
38	0x3c7a4ae9	0.015276649
39	0x3c82eaea	0.015981156
40	0xbc5ec351	-0.013596372
41	0x3c7c448a	0.0153972
42	0xba1e65cc	-0.00060423906
43	0xbcda1005	-0.026618967
44	0x3cb71942	0.022350911
45	0xbc7b1910	-0.0153258
46	0xbc88d658	-0.01670377
47	0xbcd7abe4	-0.026327081
48	0x3cae7fec	0.021301232
49	0x3b8dba13	0.0043251603
50	0x3cf41aef	0.029798
51	0xbc24abe3	-0.010050747
52	0x3bbd3706	0.0057743816
53	0x3c358ed5	0.011081417
54	0x3ccfc0f6	0.025360566
55	0x3b40c4c8	0.0029414166
56	0xbcd9deeb	-0.026595553
57	0xbc9e6a9e	-0.019337948
58	0xbc91e9e2	-0.01781172
59	0xbc9f07b7	-0.019412858
60	0xbb55977a	-0.0032591508
61	0xbcf30a3f	-0.029667972
62	0x3aa0c985	0.0012267089
63	0xbcec2a0c	-0.028828643
64	0xbcdfe429	-0.027330475
65	0x3c11e467	0.008904553
66	0x3cec30f6	0.02883194
67	0xbc8e430f	-0.01736596
68	0xbbe8e338	-0.0071071647
69	0xbcaed978	-0.021343932
70	0x3ca5aca4	0.020223923
71	0x3ca597e8	0.020214036
72	0x3bfa43e9	0.00763749
73	0x3c9b1d48	0.01893486
74	0x3cbd9336	0.023141485
75	0x3c0b0b09	0.008486518
76	0x3cd55054	0.02603928
77	0xbb99637d	-0.0046810494
78	0xbccf0ba5	-0.025274107
79	0x3cad0f14	0.021125354
80	0xbccca6f0	-0.024981946
81	0x3cb85265	0.022500226
82	0xbcae4e5d	-0.0212776
83	0x3c9eadfd	0.019370073
84	0x3c7d2012	0.015449541
85	0xbcfb2f16	-0.0306621
86	0x3c790b21	0.015200407
87	0xbc0cc188	-0.008591063
88	0xbc28e0da	-0.010307515
89	0xbd155cfe	-0.036465637
90	0xbcd8223e	-0.026383515
91	0xbd08158e	-0.03322368
92	0x3b537cb3	0.0032270371
93	0x3d0f5b44	0.034999147
94	0xbc451ee8	-0.012031294
95	0xbd0a0342	-0.033694513
96	0xbc51cba6	-0.012804901
97	0x3d17e68e	0.03708511
98	0xbbf35e96	-0.007427047
99	0x3d0a4cc9	0.033764634
100	0x3cc5cd4c	0.024145745
101	0x3cc066e9	0.023486571
102	0xbc91cbac	-0.017797314
103	0x3ce5cf3e	0.028052922
104	0xbc8615b4	-0.01636777
105	0x3c4dbbed	0.012557012
106	0xbcb5ad2a	-0.022177298
107	0x3cdf65dc	0.02727025
108	0x3cbc8180	0.02301097
109	0x3cf089de	0.029362615
110	0xbc9b8137	-0.018982513
111	0x3cc9580d	0.024578119
112	0xbc1a09f6	-0.009401789
113	0x3bc94eb4	0.0061434153
114	0x3cf978b4	0.030453064
115	0x3c1cc1d9	0.009567701
116	0x3c9dbf12	0.019256148
117	0x3c0eeedf	0.0087239435
118	0xbcd68eff	-0.026191233
119	0xbb0edd6e	-0.0021799463
120	0xbc303974	-0.010755885
121	0x3ce6d914	0.028179683
122	0x3d15063a	0.03638289
123	0x3c7e62e9	0.015526512
124	0x3cf6a61c	0.030108504
125	0x3c5ad6ec	0.013356905
126	0xbca4344c	-0.020044468
127	0x3c386c86	0.011256343
128	0xbb48363c	-0.0030549904
129	0xbb048cab	-0.0020225446
130	0xbc3a2b2d	-0.011362833
131	0x394392ff	0.0001865141
132	0xbc6610fe	-0.014042137
133	0x3ce280d4	0.02764932
134	0x3cb43ef6	0.022002678
135	0xbbbe0852	-0.0057993317
136	0x3cbda077	0.023147805
137	0x3cc1eaf6	0.023671608
138	0xbcb2f682	-0.02184606
139	0x3cfb6c47	0.03069128
140	0xbcb1ae01	-0.021689417
141	0xbc9c52a8	-0.019082382
142	0x3d0e42cd	0.034731675
143	0x3ccaa3a3	0.024736231
144	0x3c35e7dc	0.011102643
145	0x3c03d062	0.008045288
146	0x3bc13f18	0.005897414
147	0xbbae4492	-0.005318233
148	0x3b9b1480	0.0047326684
149	0x3d06a6aa	0.032873787
150	0xbcd8bdd9	-0.026457714
151	0x3c542f6c	0.012950759
152	0x3a058970	0.0005094027
153	0xbb83027b	-0.0039980984
154	0xbcd64506	-0.02615596
155	0xba543c33	-0.00080961286
156	0x3c6715ef	0.0141043505
157	0x3ce33af0	0.027738065
158	0x3c32ef04	0.010921244
159	0xbc019e87	-0.007911331
160	0x3cc2c5ed	0.023776019
161	0xbc85ece9	-0.01634832
162	0x3d0058bd	0.031334627
163	0xbd05e78a	-0.032691516
164	0xbcb0e928	-0.021595553
165	0xbce28631	-0.027651878
166	0x3c6133a5	0.013745223
167	0xbc9ecd58	-0.019385025
168	0x3cce838e	0.025209215
169	0x3b7946f6	0.003803668
170	0xbcfa4805	-0.03055192
171	0xbc9818e3	-0.018566554
172	0x3cd96a4b	0.026539942
173	0xbcf7e1a4	-0.030258961
174	0x3c625cf5	0.013816108
175	0xbbfaceb9	-0.007654038
176	0x3cc12503	0.023577219
177	0x3c6c2cfe	0.014415024
178	0xbca102b3	-0.019654607
179	0xbcb2ffc9	-0.021850483
180	0x3ceef8ff	0.029171465
181	0x3b93ffe4	0.0045165885
182	0xbb4b48c1	-0.0031018707
183	0xbc959ac6	-0.018262278
184	0x3c07067b	0.008241291
185	0xbb9a7989	-0.004714195
186	0xbcf30235	-0.029664138
187	0x3c5a0a08	0.013308056
188	0xbc5e240c	-0.013558399
189	0x3d053291	0.032518927
190	0x3bd71c8a	0.0065646814
191	0x3cc9ace0	0.024618566
192	0x3cf6beca	0.030120272
193	0x3d054553	0.032536816
194	0xbc7b8242	-0.01535088
195	0x3ce54b13	0.0279899
196	0xbbf24494	-0.007393429
197	0x3cd769e8	0.026295617
198	0x3bb54294	0.0055316184
199	0x3cc7a36e	0.024369922
200	0xbbec634a	-0.0072139846
201	0x3c50fd50	0.012755707
202	0xbc5d493c	-0.01350623
203	0x3d06232a	0.03274838
204	0xbd023787	-0.031791236
205	0xbcab90ab	-0.020943007
206	0x3b4e4a71	0.0031477476
207	0xbc124f08	-0.008929975
208	0x3d06ae27	0.03288093
209	0xbd1029d3	-0.035196137
210	0xbc3762c5	-0.011192982
211	0xbc0b30cc	-0.008495521
212	0xbc9bedac	-0.01903423
213	0x3cc64537	0.024202926
214	0xbd04c239	-0.032411788
215	0x3be93d92	0.0071179355
216	0xbba64ece	-0.005075312
217	0x3c92fa92	0.017941747
218	0x3bc496db	0.0059994287
219	0xbb883741	-0.0041569774
220	0x3cacdaf5	0.0211005
221	0x3cb42310	0.021989375
222	0x3c4d7d06	0.012542015
223	0xbbe4e682	-0.0069854865
224	0xbc93f9f3	-0.018063521
225	0x3c2ca571	0.010537491
226	0x3b626881	0.0034547152
227	0x3cd6597d	0.026165718
228	0x3a999262	0.0011716599
229	0x3c92695d	0.017872507
230	0x3ca3c979	0.01999353
231	0x3c04a2d6	0.008095464
232	0x3ce3eebb	0.027823796
233	0x3cb6c6aa	0.022311527
234	0xbd0ba979	-0.03409717
235	0x3b058779	0.0020374937
236	0x3bd2fbed	0.0064387233
237	0xbd06573b	-0.032798033
238	0x3c5941aa	0.013260284
239	0xbce3d817	-0.027813
240	0xbc839377	-0.016061528
241	0xbcc4a414	-0.02400402
242	0xbc9bc15e	-0.019013103
243	0xbb244584	-0.0025065849
244	0x3d05df50	0.03268367
245	0x3d1bf841	0.03807855
246	0x3d03e94f	0.032204922
247	0x3cd4dc07	0.025983823
248	0xbc762a2e	-0.015024705
249	0xbb91b657	-0.0044467854
250	0x3bb4bf1d	0.0055159465
251	0x3c8599a4	0.016308613
252	0xbcc0d246	-0.023537766
253	0xbca8172b	-0.02051886
254	0x3cf0e676	0.029406767
255	0x39470d4f	0.00018983077

base_model.model.transformer.h.10.attn.c_attn.lora_B.weight f4 [2304, 4]
0	0x3a1d67c9	0.000600454
1	0xb99f8d55	-0.00030432144
2	0xba183a4e	-0.0005807028
3	0x39e0e6db	0.0004289661
4	0xb7cfd7bf	-2.4776788e-05
5	0xba59ae56	-0.0008303871
6	0x3a139e11	0.0005631159
7	0xba57b893	-0.0008229103
8	0xba3601cf	-0.00069430185
9	0x3a3c5c88	0.0007185419
10	0x3989adbf	0.00026260127
11	0x3a727878	0.00092495186
12	0xba811c1b	-0.0009850295
13	0x3a88438e	0.001039611
14	0x395e6f1e	0.00021212964
15	0x3a468a11	0.0007573674
16	0x3aaef445	0.0013347944
17	0xba9d0ad9	-0.0011981382
18	0xb9b95fe5	-0.00035357397
19	0xba871213	-0.0010305069
20	0xba830598	-0.0009996174
21	0x3a74c399	0.00093370077
22	0x3a822125	0.0009928091
23	0x39570da8	0.00020509085
24	0xba8de829	-0.0010826635
25	0x3a819b47	0.0009888195
26	0x3a0ad3f8	0.0005295868
27	0x3a3972a4	0.0007074273
28	0xba8ed653	-0.0010897614
29	0x3a7598ee	0.00093687966
30	0x3a239d12	0.0006241362
31	0x3a4dcfbf	0.0007851086
32	0x3985b952	0.0002550581
33	0x3a4a30d3	0.0007712964
34	0x38153d0c	3.5581223e-05
35	0x3a30a4d5	0.0006738429
36	0x398a342e	0.00026360288
37	0x39d84a45	0.00041254066
38	0xba21710a	-0.0006158507
39	0x3a6b9656	0.00089869404
40	0x391913f5	0.00014598652
41	0x39ffbce1	0.00048778116
42	0x3a51c469	0.00080019847
43	0xb9dbc77d	-0.00041919565
44	0x3a9a0904	0.0011751954
45	0xba3b229d	-0.00071386417
46	0x3751f8a1	1.2515259e-05
47	0xba499ad8	-0.0007690615
48	0x3aa22298	0.0012369929
49	0xb9bf9bcf	-0.00036546445
50	0xb9f25214	-0.0004621899
51	0xb9b052d2	-0.00033631042
52	0xba1977b1	-0.0005854322
53	0x3a90ae49	0.0011038269
54	0x3a51a837	0.0007997783
55	0x3a1c4dda	0.00059625285
56	0xba9d2963	-0.0011990484
57	0x3a9c6a7c	0.001193359
58	0x3a00fae9	0.0004920201
59	0x3a883dee	0.0010394433
60	0x3a269f20	0.0006356109
61	0xba25633b	-0.0006309037
62	0xba37375f	-0.0006989147
63	0xb85eb7a6	-5.309996e-05
64	0x39eabe3e	0.000447737
65	0xba61685c	-0.00085986196
66	0xba1baba5	-0.0005938358
67	0xba3c8961	-0.0007192102
68	0xbab03695	-0.0013444001
69	0x3a7ce476	0.00096470804
70	0x39bb47cc	0.00035720912
71	0x3a5b0d9a	0.0008356214
72	0x3a8f98e1	0.0010955596
73	0xba844d08	-0.0010093758
74	0xb9e17419	-0.00043001844
75	0xba5c29df	-0.0008398573
76	0xba17de61	-0.000579333
77	0x3942f20a	0.00018591448
78	0x3a0ceb43	0.0005375633
79	0x37c2e455	2.3232928e-05
80	0x3a9fcb01	0.0012191237
81	0xba9008b0	-0.0010988917
82	0xb9dde36a	-0.00042321841
83	0xba5e1de8	-0.00084730843
84	0x38c0768e	9.177356e-05
85	0xba626c4a	-0.0008637352
86	0xba48567b	-0.0007642281
87	0xb9e520d9	-0.00043702757
88	0x3abf7ec4	0.0014609923
89	0xba722372	-0.0009236849
90	0xb95a457c	-0.00020815985
91	0xba37b17c	-0.0007007343
92	0xb955bf75	-0.00020384586
93	0xba1a4824	-0.00058853836
94	0x3a22a73c	0.00062047294
95	0xbaa384b7	-0.0012475465
96	0x3ab91183	0.0014119599
97	0xba858056	-0.0010185342
98	0xb9b9ff7d	-0.00035476303
99	0xba672833	-0.0008817941
100	0x3a774e55	0.00094339746
101	0xba608c57	-0.0008565834
102	0xba835867	-0.0010020853
103	0xb997aeca	-0.00028931192
104	0xba3bd57c	-0.00071652955
105	0x3a145e0f	0.0005659768
106	0x3a90c84a	0.0011046019
107	0xb7187752	-9.087687e-06
108	0xb97c70a8	-0.0002407456
109	0xba93e7ef	-0.0011284332
110	0x398c5e42	0.00026773108
111	0xba5f8143	-0.00085260364
112	0x3784191e	1.5747322e-05
113	0xb9295ea4	-0.00016152352
114	0xba609f5c	-0.0008568668
115	0x399a0e18	0.0002938367
116	0xbabf5b7a	-0.0014599406
117	0x3a493e74	0.0007676848
118	0xb932f6e9	-0.00017067384
119	0x3a14d056	0.00056767964
120	0x3a5d8d55	0.0008451541
121	0xba526595	-0.0008026001
122	0xba4bae21	-0.00077697827
123	0xb9d79e1d	-0.000411258
124	0xb9493af9	-0.00019190823
125	0x39b8037d	0.00035097814
126	0x3a555d45	0.00081392034
127	0xba072bc2	-0.0005156362
128	0x3a5d7e90	0.000844934
129	0xba851def	-0.0010156016
130	0x398ffcf6	0.00027463556
131	0xba40afba	-0.0007350404
132	0x3a90fd42	0.0011061805
133	0xba949aca	-0.0011337635
134	0xb99a0730	-0.00029378524
135	0xba434853	-0.0007449437
136	0x3aba306e	0.0014205107
137	0xba57a18e	-0.00082256726
138	0x370a8719	8.256896e-06
139	0xba6c5c80	-0.0009016469
140	0xb980ceac	-0.00024568045
141	0x3a8d8026	0.0010795637
142	0x3944fe21	0.00018786687
143	0x3a7c0460	0.0009613689
144	0xbaa0ff1c	-0.001228306
145	0x3a68ae25	0.0008876047
146	0xba3dd547	-0.00072415586
147	0x3a1351b3	0.0005619779
148	0xba3af9d9	-0.0007132567
149	0x3a06b3ec	0.0005138505
150	0x39df451a	0.0004258536
151	0x3966d248	0.00022012845
152	0x3a8332ce	0.0010009648
153	0xb9f5ea8b	-0.0004690479
154	0xb9432fe5	-0.00018614491
155	0x352a3c62	6.3417804e-07
156	0xba48b6e4	-0.00076566474
157	0xb88ab4d5	-6.6140354e-05
158	0x39e6d602	0.00044028467
159	0xb9ab94fe	-0.0003272667
160	0x3876aa55	5.8809605e-05
161	0xba0e6f75	-0.00054334785
162	0x3987bb2c	0.0002588866
163	0xba5e89cb	-0.00084891607
164	0xbab1d66b	-0.001356793
165	0x3a47869e	0.0007611307
166	0xba21bb7e	-0.0006169601
167	0x3a1f7c45	0.0006083886
168	0x3ab0cd21	0.0013488868
169	0xba220a5f	-0.0006181355
170	0xb9a0a551	-0.00030640748
171	0xba1d1de3	-0.0005993528
172	0xb901dc0b	-0.00012384371
173	0x39ac14ac	0.00032821798
174	0xb8740abd	-5.8184134e-05
175	0x3a3e499b	0.0007258893
176	0x39ead77d	0.0004479251
177	0xb953fc51	-0.00020216523
178	0xba7bc523	-0.0009604266
179	0x398e80e6	0.00027180387
180	0x3a87e07a	0.0010366582
181	0xb978bf02	-0.00023722279
182	0x3a51e137	0.0008006277
183	0xb98b7ac5	-0.00026603616
184	0x392ff916	0.00016782092
185	0xba1f57cd	-0.0006078452
186	0xba565ab7	-0.000817697
187	0xb9bf82cd	-0.00036527813
188	0xbaa37338	-0.0012470251
189	0x3a6b73b8	0.0008981782
190	0x39e9993b	0.0004455539
191	0x3a521e43	0.00080153736
192	0xb9a7f954	-0.00032038486
193	0x3897b8f8	7.234694e-05
194	0xba217092	-0.0006158437
195	0x39de0f7f	0.00042354685
196	0xba89e2b2	-0.0010519831
197	0x3a0e5c62	0.0005430636
198	0xb98bb0d5	-0.00026643896
199	0x39fe631f	0.00048520506
200	0x39961a2e	0.00028629735
201	0xba004620	-0.0004893262
202	0xb95ab9a8	-0.00020859262
203	0xb90a36ef	-0.0001318117
204	0xba8cc67e	-0.0010740308
205	0x3a95ca73	0.0011428132
206	0x38dcee1f	0.00010534771
207	0x3a6f79ef	0.0009135296
208	0x3a2d02ba	0.00065998326
209	0x3a88a1d1	0.0010424202
210	0xba41faf2	-0.00073997595
211	0x3a47d6f3	0.00076232775
212	0xb9bb60a7	-0.0003573943
213	0xb82b1628	-4.079021e-05
214	0x3a53d3fc	0.00080805994
215	0xba00dca7	-0.0004915692
216	0xba471269	-0.0007593991
217	0x3a9fcfe8	0.0012192698
218	0x3a329471	0.00068122806
219	0x3a5872a4	0.0008256829
220	0xba8a26f4	-0.0010540173
221	0x3963d64c	0.00021728239
222	0x3a87daf3	0.0010364935
223	0xb9c96a20	-0.00038416777
224	0xb9209d64	-0.00015317422
225	0xba6b68e5	-0.0008980169
226	0x38db23e4	0.00010449419
227	0xba755e16	-0.0009360028
228	0x378b6492	1.6616923e-05
229	0xb9b25e19	-0.00034020914
230	0x3a6d8e85	0.00090620696
231	0xb99b2435	-0.0002959088
232	0x3a531f47	0.0008053672
233	0x378e3fed	1.6957487e-05
234	0xba674a9a	-0.0008823067
235	0xb9d14547	-0.00039915202
236	0xba66c8f9	-0.0008803751
237	0x3a7a3633	0.00095448195
238	0x3970c9f7	0.00022963421
239	0x3a09d8a7	0.0005258419
240	0x3a8b0bdd	0.0010608394
241	0xba8a7406	-0.0010563142
242	0xba04e0c3	-0.00050688925
243	0xba57d001	-0.0008232594
244	0x3a8d67d4	0.001078839
245	0xba14b69a	-0.00056729617
246	0x380ecd13	3.404643e-05
247	0xba067073	-0.00051284506
248	0x3aa56e48	0.0012621367
249	0xba97f3c4	-0.0011593034
250	0xb8d2b473	-0.000100471916
251	0xba53c38b	-0.00080781494
252	0x39e10f62	0.00042926805
253	0xba448ce2	-0.00074978
254	0xba4c47df	-0.0007792692
255	0xba189c9e	-0.00058216776

base_model.model.transformer.h.11.attn.c_attn.lora_A.weight f4 [4, 768]
0	0xbcb8ed24	-0.022574015
1	0x3d053095	0.032517035
2	0x3cb704de	0.022341188
3	0xbbb0b186	-0.005392256
4	0xbd162522	-0.036656506
5	0xbcd15db8	-0.025557384
6	0x3d0940c6	0.03350904
7	0x3ce82332	0.028337095
8	0xbd0ccecb	-0.0343769
9	0x3c8b68c3	0.017017728
10	0xbd095e92	-0.033537455
11	0x3c645884	0.013937119
12	0x3d14e94a	0.036355294
13	0xbcffc809	-0.031223314
14	0xbc579966	-0.013159132
15	0x3cf3afec	0.029746972
16	0xbcd6f3fd	-0.02623939
17	0xbc08e6a1	-0.0083557675
18	0x3d02b5a5	0.03191151
19	0xbba36f60	-0.004987642
20	0x3c1130d5	0.00886174
21	0x3bb7ad1c	0.005605353
22	0x3c93168f	0.017955093
23	0x3d0752dc	0.033038005
24	0xbc38b970	-0.0112746805
25	0xbc8fc751	-0.017551096
26	0xbc4fd867	-0.012685872
27	0x3cf4bd21	0.02987534
28	0xbc521db4	-0.012824465
29	0xbbf2a507	-0.0074049267
30	0xbd06fbf4	-0.032955125
31	0x3c038251	0.008026675
32	0x3d103dea	0.035215296
33	0xb9a4d95f	-0.00031442472
34	0xbb60ee2b	-0.0034321647
35	0xbc994161	-0.018707933
36	0xbcd2f9b0	-0.025753826
37	0x3c8f554f	0.017496733
38	0xbc870062	-0.016479675
39	0x3af18d11	0.0018428882
40	0xbd01e56a	-0.031712927
41	0x3d1a763b	0.03771041
42	0xbbd4ab87	-0.006490174
43	0xbc51a940	-0.0127967
44	0xbc834ccd	-0.016027832
45	0xbb8bf898	-0.004271578
46	0x3c19fc6d	0.009398562
47	0xbc400a72	-0.01172124
48	0xbcaaae8a	-0.02083518
49	0x3c5fb286	0.013653403
50	0xbceea9d4	-0.029133715
51	0xbcf94212	-0.030427013
52	0xbcc72d40	-0.02431357
53	0xbd08efec	-0.033431932
54	0xbc490c3f	-0.012270986
55	0xbbe76c76	-0.00706249
56	0x3ce84f15	0.028358022
57	0x3bcea831	0.006306671
58	0x3bb121c7	0.005405638
59	0x3c976992	0.018482957
60	0x3d03bea2	0.032164223
61	0xbc9e0409	-0.019289033
62	0xbaf1a03b	-0.0018434593
63	0x3c86b1de	0.016442236
64	0x3d06e824	0.03293623
65	0x3cc621d8	0.02418606
66	0xbcd53e26	-0.026030611
67	0x3d1a0726	0.037604474
68	0x3c58e543	0.013238254
69	0x3b0a7e76	0.0021132505
70	0xbbd71894	-0.0065642092
71	0xbca7a890	-0.020466119
72	0xbce8b91a	-0.028408576
73	0x3c9f144d	0.01941886
74	0x3c943fb9	0.018096792
75	0x3c644954	0.013933498
76	0xbade124d	-0.001694271
77	0x3b187fe1	0.002326958
78	0x3c84ea2f	0.016224949
79	0x3ba6eb03	0.0050939335
80	0xbcb20e70	-0.0217354
81	0x3c031bd1	0.008002237
82	0xbcde28bd	-0.027119035
83	0xbc856cc5	-0.016287217
84	0x3bee8f4d	0.0072802664
85	0x3ba4cdea	0.0050294297
86	0x3c452517	0.012032769
87	0x3cd4a555	0.025957743
88	0x3ceaf99a	0.028683472
89	0xbcb6a84a	-0.022297043
90	0x3cdc6dc2	0.026907805
91	0x3b1a4529	0.0023539758
92	0xbc92595e	-0.01786488
93	0x3ca33c7c	0.019926302
94	0xbcb9fe59	-0.02270429
95	0x3c371dd0	0.011176541
96	0x3cc0d6ec	0.023539983
97	0x3bbe04c2	0.005798907
98	0xbcd875d9	-0.026423382
99	0xbc5dfefa	-0.013549561
100	0x3c4e9f5f	0.012611239
101	0x3d140147	0.03613403
102	0x3c845097	0.01615171
103	0x3cd777c1	0.02630222
104	0xbc27db7d	-0.010245201
105	0xbbc5df85	-0.0060386085
106	0x3ce96d68	0.028494552
107	0xbce5b12c	-0.028038584
108	0xbcde52ca	-0.027139086
109	0x3ba938d9	0.0051642475
110	0xbc557ffd	-0.013031003
111	0xbcee6591	-0.029101165
112	0xbc2ce7ca	-0.01055331
113	0xb9908235	-0.00027562832
114	0xbcfac9b2	-0.030613754
115	0x3d01dbf5	0.031703908
116	0xbd1584e5	-0.03650369
117	0x3a9c8653	0.0011941887
118	0xbbb44a70	-0.0055020377
119	0x3b9d68ce	0.0048037535
120	0x3d09080d	0.033454943
121	0xbcd6b91a	-0.02621131
122	0xbd0b95c2	-0.034078367
123	0xbcd8e28a	-0.02647521
124	0x3d0ccbcb	0.03437404
125	0xbcc5d6d4	-0.02415029
126	0xbc5dc71c	-0.013536241
127	0x3cddfaab	0.027097067
128	0xbcd9fef4	-0.026610829
129	0xbc5caa7a	-0.013468379
130	0xbcbb0271	-0.022828313
131	0x3c5462ff	0.012963056
132	0xbb32c5f9	-0.0027278645
133	0xbc60ac5d	-0.01371297
134	0x3c448f5a	0.011997068
135	0x3afe75bb	0.0019413749
136	0x3cf37ccf	0.0297226
137	0x3c88e870	0.016712397
138	0xbcd366dc	-0.025805883
139	0x3bc9e584	0.0061613936
140	0xbcbf9d07	-0.023390306
141	0xbbd0f191	-0.006376453
142	0x3bf5ae11	0.007497557
143	0xbc19b52e	-0.0093815755
144	0x3c02d45b	0.0079852
145	0xbca6909d	-0.020332629
146	0xbc254bc3	-0.010088864
147	0x3c9c6deb	0.019095382
148	0x3ccee6b6	0.025256496
149	0x3be27a3e	0.006911545
150	0xbd05a003	-0.032623302
151	0xbcd38b22	-0.02582318
152	0xbccbd4e0	-0.02488178
153	0xbcc323cd	-0.023820782
154	0x3c843b6f	0.016141621
155	0x3cbf8b6b	0.02338191
156	0xbba62dcc	-0.0050713774
157	0xbcfbc6b0	-0.03073439
158	0x3bc239f8	0.0059273206
159	0x3d12fb61	0.035884265
160	0x3c88bc54	0.016691364
161	0x3bdb534f	0.006693281
162	0x3c79febc	0.015258487
163	0x3ce14109	0.027496831
164	0xbc9f9c66	-0.019483756
165	0x3ce75cef	0.028242556
166	0xbced86c8	-0.028994933
167	0xbd191a1e	-0.037378423
168	0x3c43004f	0.011901929
169	0xbba81c40	-0.005130321
170	0x3d14342a	0.03618256
171	0xbc38667c	-0.011254903
172	0x3ba2816c	0.004959276
173	0x3d0122ab	0.031527203
174	0x3c046fbb	0.008083279
175	0xbcc72611	-0.024310144
176	0xbcfefd58	-0.031126663
177	0xbcf4d291	-0.029885562
178	0x3b662500	0.0035117269
179	0xbd11d7ad	-0.035606075
180	0xbcda99ff	-0.02668476
181	0xbc2bbe8d	-0.010482443
182	0xbc571926	-0.013128554
183	0x3c34cbb6	0.011034897
184	0xbced80c7	-0.02899207
185	0xbd093bfa	-0.033504464
186	0x3c35857a	0.011079187
187	0x3c9bd8ec	0.019024335
188	0x3c8e982d	0.017406547
189	0xbc658b92	-0.014010327
190	0xbcc92768	-0.024554923
191	0x3c2c18f3	0.010503995
192	0xbc9fe91b	-0.019520333
193	0x3d02dd1a	0.03194914
194	0x3c85fa3f	0.016354678
195	0x3c83e77a	0.016101588
196	0x3c97e903	0.018543726
197	0x3ca88531	0.020571323
198	0xbc5125d2	-0.012765365
199	0x3c7713ed	0.015080434
200	0x3cd3b52c	0.025843225
201	0xbbb28c5a	-0.00544886
202	0x3cfcf327	0.030877663
203	0x3c904655	0.017611662
204	0x3d0aeb3f	0.033915754
205	0xbc5867a7	-0.013208306
206	0x3c6252e7	0.013813711
207	0xbb397bfc	-0.002830266
208	0xbd15786d	-0.0364918
209	0xbcd6f0ce	-0.026237871
210	0xbd00fbb1	-0.03149003
211	0x3b3bbe74	0.0028647454
212	0xbbc5c3f1	-0.006035321
213	0xbd0c5ec0	-0.03427005
214	0x3c592ed8	0.013255797
215	0x3c27d956	0.010244688
216	0xbca7b48a	-0.02047183
217	0x3cc64d46	0.024206769
218	0xbd0dd705	-0.034628887
219	0x3afb4560	0.0019170456
220	0xbd012a30	-0.031534374
221	0xbc8fb092	-0.01754025
222	0x3cbc2dc3	0.02297104
223	0x3c9d9c3c	0.019239537
224	0xbc2ffbe4	-0.010741208
225	0xbc464e46	-0.012103623
226	0xbc7086bd	-0.014680562
227	0xbbdc40ae	-0.0067215776
228	0xbd18723e	-0.037218325
229	0x3ce08863	0.027408784
230	0x3c619f3e	0.013770876
231	0x3c020505	0.007935767
232	0x3bbc605d	0.005748792
233	0xbd03cbdd	-0.03217684
234	0xbd055324	-0.032549992
235	0xbd0279b3	-0.031854343
236	0x3cdd07c0	0.026981235
237	0x3c29678f	0.010339632
238	0xbc6034ba	-0.013684446
239	0x3cb0b46a	0.021570403
240	0xbcb04a6f	-0.021519868
241	0xbc0eb107	-0.008709199
242	0xbd03e3c9	-0.032199655
243	0xbc12981a	-0.008947397
244	0xbb2e4e1c	-0.002659685
245	0xbc086fc3	-0.008327427
246	0x3cb6df8f	0.022323398
247	0x3c53d604	0.012929443
248	0x3cc88844	0.024479039
249	0xbca15d80	-0.019697905
250	0x3a885433	0.001040107
251	0x3c407d24	0.011748586
252	0x3ad74109	0.001642258
253	0xbccc79bb	-0.02496039
254	0xbd16a4cc	-0.036778256
255	0x3b871faf	0.00412365
