models/simple_financial_lora/checkpoint-100/adapter_model.safetensors (safetensors, 592848 bytes, 24 tensors)

base_model.model.transformer.h.0.attn.c_attn.lora_A.weight f4 [4, 768]
00000000: 91ff 943c d4c2 3a3c 93cf c13c b24a 21bd
00000010: 8308 273c ce48 8db9 7f73 023d 84e7 983b
00000020: 1fa4 afb9 eda2 0abc aa45 a3bc 5a41 a9bc
00000030: 1e47 013d 65f8 483b 9cd6 04bd f78b 963c
00000040: 71be db3c ee66 23bc 6051 0a3d 2dd3 24bb
00000050: 5ee7 84bc c8bf 043c b853 36bc 8a5e f7bb
00000060: 9448 c23a 4bcd b83c 3778 9fbc b891 e43c
00000070: b074 7d3c b2e3 10bb 27e5 cdbc 4474 013d
00000080: a168 32bc 0a78 b93b 7cf0 1abd cc3d 69bc
00000090: fea2 353c 78e5 d2bc a273 343c a044 853c
000000a0: 3e78 aa3c 5429 873c 5042 9d3c d550 173c
000000b0: 4b0c c83b 2cbd 8dbb 47b3 20bb a84e c03c
000000c0: 3389 57b9 830b d7bc 6b32 e3ba 70fa fe3c
000000d0: 77b7 f93b 7dce 84ba 7343 1bbc d9e2 213d
000000e0: 0df4 00bc 89f2 b53c d449 aebb 181e ba3b
000000f0: 4d73 e0bc e088 173d 8dc4 18bd c632 13bc
00000100: 2576 ce3c 89fe f8bb e6bd 0c3d bacc 46bc
00000110: e901 a63c 3692 13bb e03e b939 f0f9 5dbb
00000120: 78cb 30bc e423 60bc aa8a 833c 391d cdbc
00000130: edfd 15bc ea11 c83c f968 ecbb 0578 843c
00000140: 50ce 803c cae6 c53c 0f4b 89bc e464 fe3c
00000150: c4e4 dbbc 6c7a b93c 96a4 03bb dc35 323c
00000160: c16a 183c a861 193d 6b38 e63c 29e8 4aba
00000170: 8f31 e0b9 56ef ef3c 7589 febc 95f0 91bc
00000180: 5c87 f6bc bc67 933c eb24 7e3c 201a c2bc
00000190: 315d b4bb 2b44 0bbd bfa7 debc de93 feb9
000001a0: d67a 873c a52a f83c 0a51 58bc f5a5 a0bc
000001b0: f5b6 ccbb 93ce ed3b bffe 373b 7750 94bc
000001c0: 3b7f 28bc 8103 6a3c d246 363c 47af acbb
000001d0: ed17 ad3b 6da7 b03b e1b2 d73c 8aff b73c
000001e0: 7d2f 1dbc 9e08 0bbd dbde 22b9 11c3 f9ba
000001f0: 6d16 e63a 5891 1abc 19c7 e73c 3804 50bc
00000200: ddba 33bc be47 b1bc 30af 8c3c 72d7 d63a
00000210: 3ccc abbc d718 c8bc cd97 cb3c 8c60 023d
00000220: 33c0 1fbc 0cc5 e5bc fdf9 02bc de15 f43c
00000230: 2788 933c ab2c ea3c effc 0ebd 96db 8d3c
00000240: 0720 76bc 2f5a 023d 865e deba 774f feba
00000250: 77ac e0bc 2f46 bc3c 6524 94bc f2d2 bb3a
00000260: 1518 2f3c d6e7 c4ba 6650 84bc cbd5 e73c
00000270: 7f75 383b 2741 3738 b296 0bbd c63f a73c
00000280: 5b41 943c 1de0 a4bc 2864 e03c cd0d 3ebc
00000290: dc53 033d 07d9 18bd 9d81 0dbd 02ad 1ebc
000002a0: 0064 08bd be5b d63c e6f1 163d c0ba f63c
000002b0: 6afe fdbc adc2 f7bc 9467 06bd 9c2c 093d
000002c0: 20be d0bc 774b 8f3c 9749 a7bc 6c2b e23c
000002d0: 21c0 10bd 4608 c2bb 82b7 fcbc add4 153c
000002e0: a6a3 4cbc ecda 4c3b 781e 5bbc f1aa 22bc
000002f0: 7ef2 673c 95c2 9cba 2aac 463c 85f4 b33b
00000300: 6ca7 04bd 957b c13b a57a 903c f130 02bd
00000310: 12de c4bc 4db5 4d3c 3177 6fbc 4658 f4bc
00000320: 78f6 0cbd 44d5 a9bc c810 07bd 7fbe 20bb
00000330: 8a57 b63c d0b2 8bbb 72fd 043c dd85 f3bc
00000340: 8965 b2bb f5b0 613a 618b 99bb 1744 093d
00000350: 4d06 8dbc e45b 98bc edf8 23ba f232 613a
00000360: 6af4 56bb ebf1 38bc a7e5 b2bc 1207 2abb
00000370: 5e0a 62bc 3c10 413c 6b7c 973c 9e5a f6bb
00000380: 3a0b 7cbc 000a f4bc 417e 0a3c 5650 c03c
00000390: 748b 593a eb7c 0a3d 1e53 b13c 7a28 25bb
000003a0: b2c4 c23b 8fec 9c3c c89b e13c 6b78 04bd
000003b0: 1a8b a8bc aaae f23c 5634 be3c 3673 723c
000003c0: 91f4 833c 0e54 dbbb 82cf 0bba cb60 fa3c
000003d0: 3874 9dbc 5bf4 cabc 8ab1 13bc e37b debc
000003e0: adbc f3bc e50e 8fbc e4fb ef3c 6265 c5bc
000003f0: ab1d 1e3c 95ec df3b 9566 cf3c 84c8 09bd
0.01818827 0.01139899 0.02365855 -0.039377876 0.0101949 -0.0002694786 0.031848427 0.0046662707
-0.0003350088 -0.008461696 -0.01993068 -0.020661045 0.031561963 0.0030665633 -0.03243123 0.018377287
0.026824208 -0.009973271 0.03376901 -0.0025150285 -0.016223606 0.008102365 -0.011128359 -0.0075491117
0.0014822655 0.022558829 -0.019466503 0.027901515 0.015469715 -0.0022108373 -0.025133682 0.03160502
-0.010889203 0.0056600617 -0.037827 -0.014235925 0.011086224 -0.025744185 0.011013897 0.016268075
0.020809289 0.016499199 0.01919666 0.00923558 0.006104981 -0.0043255296 -0.002452092 0.023475006
-0.00020555108 -0.026250606 -0.0017333751 0.031125277 0.0076207477 -0.0010132339 -0.00947653 0.03952298
-0.007870686 0.022210376 -0.0053188596 0.005679857 -0.02739873 0.03699577 -0.03729682 -0.008984273
0.02520282 -0.0075987023 0.03436079 -0.012133772 0.020264583 -0.0022517568 0.00035332795 -0.0033870898
-0.010790698 -0.013680432 0.016057331 -0.025038349 -0.009154779 0.024422605 -0.007214662 0.016170511
0.015723377 0.0241579 -0.016759424 0.031053968 -0.026842482 0.022641383 -0.0020087115 0.010877099
0.009302796 0.037446648 0.028103074 -0.0007740283 -0.00042761533 0.029288929 -0.031071404 -0.017814914
-0.030093841 0.0179938 0.015511732 -0.023694098 -0.0055042733 -0.034000557 -0.027179597 -0.00048556825
0.016538065 0.030293772 -0.013202915 -0.019610384 -0.006247396 0.0072572916 0.0028075424 -0.018104775
-0.01028424 0.014283062 0.011125283 -0.005269918 0.005282393 0.0053910525 0.026330413 0.022460718
-0.009593842 -0.033943765 -0.00015532544 -0.0019055327 0.0017554291 -0.009434067 0.02829318 -0.012696318
-0.010969845 -0.021640655 0.01717338 0.0016391112 -0.02097141 -0.024425907 0.024852658 0.031830356
-0.009750414 -0.02804806 -0.007994172 0.029795583 0.018009258 0.028585752 -0.034909185 0.01731662
-0.015022284 0.031824287 -0.0016965426 -0.0019402344 -0.027425988 0.022982685 -0.01808376 0.0014329834
0.010686894 -0.0015022706 -0.016151618 0.028300187 0.0028146205 4.3691278e-05 -0.03407926 0.020416152
0.01809757 -0.020126397 0.027391508 -0.01159997 0.032062396 -0.03731635 -0.034547437 -0.009684803
-0.033298492 0.026166793 0.036851786 0.030118346 -0.031005103 -0.030244196 -0.032813624 0.03348981
-0.025481284 0.01749204 -0.020420833 0.027608596 -0.03533948 -0.0059213964 -0.030849222 0.009144944
-0.012490189 0.0031258417 -0.013373964 -0.009928451 0.014156936 -0.0011959845 0.012126008 0.0054917955
-0.03238623 0.0059046247 0.017636606 -0.031784955 -0.024031673 0.0125554325 -0.01461582 -0.029827248
-0.03441474 -0.020731576 -0.03297499 -0.0024527607 0.022258539 -0.0042632595 0.008117067 -0.029726917
-0.005444233 0.00086094375 -0.0046858047 0.0335122 -0.017214919 -0.018598504 -0.00062550494 0.000859066
-0.003279949 -0.0112881465 -0.021838022 -0.0025944156 -0.013796417 0.011783656 0.018491944 -0.0075181266
-0.015383536 -0.029789925 0.008452953 0.023475807 0.0008298673 0.033810537 0.021646079 -0.0025201128
0.005943858 0.019155769 0.027540103 -0.032341402 -0.020574141 0.029624302 0.023218315 0.014797976
0.01610783 -0.0066933697 -0.000533335 0.030563733 -0.019220456 -0.02477472 -0.009014497 -0.027158683
-0.029753054 -0.017463157 0.029294915 -0.024096195 0.009650628 0.0068336227 0.02531747 -0.033638492

base_model.model.transformer.h.0.attn.c_attn.lora_B.weight f4 [2304, 4]
00000000: f58e a0ba a073 7e3a 47ae 30ba 7546 393a
00000010: a0dd 9fba d083 4739 e7c9 8c3a 645f ed3a
00000020: e023 833a 21b6 0bba 6ce7 6439 5177 f3ba
00000030: 2e2e 2fb9 3db7 aeba b716 623a c8be 8d39
00000040: d136 103a d19f eeba 997d 0a3b 88e7 f1b9
00000050: 2eb4 0e39 6aac c0ba 8889 e73a f7a8 78b7
00000060: 05cc a5b9 37e9 313a 0745 65b9 f63d 8c3a
00000070: 9cdf 99ba ec1a 343a 410e 9bb8 3bb6 013b
00000080: da71 473a 4a81 b5b9 e926 8b3a dcb7 beba
00000090: a5e3 683a d302 71b9 695d 8e39 a6a9 85ba
000000a0: c031 4cba d903 2438 ac3d f5b9 c881 aa3a
000000b0: 6854 803a bc9c 043a 61aa 103a 0ebb 94ba
000000c0: 0d2a 293a e042 a0b9 d453 a33a 4ddf 6bba
000000d0: 00de fc39 586e 2c3a 2a64 60ba 6524 26ba
000000e0: 340d 09ba bd10 0cba 8260 273a fef5 093b
000000f0: ed99 17ba b00e 69ba 2f08 3639 c9f7 323a
00000100: 7675 8bba 274c 4039 5f5f d439 9c1b d73a
00000110: c11e 82ba a9b2 c3b9 4ab2 0b3a 4ef5 a63a
00000120: b7f6 8db9 ab7f f4ba 51ce 0f3b df9b 303a
00000130: 0f69 b439 e887 85ba 6e1c 993a a0b7 09ba
00000140: a43a a039 7943 8d3a 3d9b b5ba a35b 3eba
00000150: b064 c1b8 2b80 c43a 4e2c e4ba 145f ac37
00000160: ffbb 8bba c048 adba 5116 d53a 32a1 fe3a
00000170: 896b 3139 928c a13a 86fd b7ba 6863 a9ba
00000180: 60ab 1839 4f40 4d3a 37d2 2339 610e 993a
00000190: 1735 5aba 97a7 63b9 84b5 8f39 fc64 d53a
000001a0: d124 a4ba 85d5 88ba 2892 9b3a 8561 1b3b
000001b0: 6ca7 65b9 bbac 93ba 7bbf c63a 32de a13a
000001c0: 6108 5bba ec0c 95ba fc41 c13a e0f2 a83a
000001d0: de07 4bba 68d3 abba 906c 003b b2bb ca3a
000001e0: b51a 48ba 1edd 013b fea0 cfba d27a ebb9
000001f0: 2ef1 de36 ee3e b2ba 3f45 8e3a e79a b4b8
00000200: e658 90ba 44d4 603a 5ef8 98ba 3ca3 dfb9
00000210: 5e21 623a a3d6 c5ba ce82 e43a f125 31ba
00000220: 0c14 9d3a 759f 96ba 7841 933a 82ed a4ba
00000230: cc14 9739 a8ed a2b8 4c36 b6b8 bff5 70ba
00000240: beb0 823a 4ba6 15ba a8f6 df39 f8b0 61ba
00000250: 8e89 52b9 201a 113a 5793 acba 9f28 863a
00000260: c1c9 533a a8ff 1b3a 81a9 9a39 d357 2eba
00000270: 4e15 81ba 6ec9 bbb9 1d78 ce3a 01fb eb3a
00000280: f43d b038 3a36 c2ba 22fc 333a fe29 a7b6
00000290: b11a daba 757c ce39 e2a4 f339 a5b7 0b3b
000002a0: 6c31 5fba 41f8 a1b9 47d4 9439 d7bf cb3a
000002b0: 2a94 793a 8277 ef3a b71f feba ef71 b6ba
000002c0: e640 4b3a deac 363a cb2d 8dba c850 bcba
000002d0: bd23 bdba 6e42 a83a 4d3b 2a38 c3b0 0a3b
000002e0: 57ab 67ba 7a56 9eb9 407d c03a 9618 cb3a
000002f0: f88a 78ba 4a8c f23a dd54 d4ba e2db b739
00000300: b619 713a efff bd39 54a1 a9ba 42f9 0cba
00000310: 81f5 ae39 d7be 9fba 5482 ba3a cb2b b439
00000320: ecce bfb9 b328 bf3a 7f97 c8ba e5e3 bd39
00000330: 2760 bfb8 a68f 03ba d36a fa38 aaf0 a5b8
00000340: 022b 8c3a dd7d 5038 5eb2 4dba 7380 f8ba
00000350: f6ef 0fb9 0f1c 153b a84b 0fbb a784 1aba
00000360: 8128 60ba 2159 b2ba 4b93 023b 7361 e13a
00000370: ec34 713a 3984 8bba 89f2 123a d157 3aba
00000380: bba4 91ba 5d21 cc3a 237b 16ba f84a 053b
00000390: 848b dbb9 6f49 2fba d5e0 8c3a 1a27 b03a
000003a0: d17e d23a 88bf 72b6 3055 3aba cbda 0dbb
000003b0: 70f8 32ba 59d1 8e39 d36e 8b3a 8556 073a
000003c0: 7639 adba 961f d7b9 2679 5239 93d0 da3a
000003d0: 6ae7 29ba afc7 4f39 2ba0 0cb9 6c38 c03a
000003e0: af2d 4f39 32ad c93a 1300 ccba e3a4 a5ba
000003f0: 070c d539 ecdf ccba ff2d 953a f665 d5b9
-0.0012249636 0.00097065605 -0.00067398365 0.0007067689 -0.0012196787 0.00019027223 0.0010741324 0.0018110094
0.0010005198 -0.00053295685 0.00021829986 -0.0018574988 -0.00016706504 -0.0013329756 0.00086246006 0.0002703576
0.00055013323 -0.0018205588 0.002113199 -0.00046139606 0.00013609297 -0.0014699821 0.0017664889 -1.4821292e-05
-0.0003162326 0.0006786766 -0.00021864857 0.0010699618 -0.0011739614 0.0006870467 -7.393631e-05 0.0019792456
0.0007608213 -0.00034619338 0.0010616455 -0.0014550644 0.00088840193 -0.00022984603 0.00027153947 -0.0010197654
-0.0007789396 3.910423e-05 -0.0004677599 0.0013008649 0.000979078 0.00050587556 0.00055185525 -0.001134725
0.00064531044 -0.00030567404 0.0012460896 -0.0008997813 0.00048230588 0.0006577722 -0.00085598475 -0.00063378207
-0.00052281027 -0.00053430704 0.0006384925 0.0021051164 -0.00057831296 -0.0008890433 0.00017359921 0.0006827084
-0.0010639864 0.00018338916 0.00040506848 0.0016411426 -0.0009927378 -0.0003732641 0.00053289963 0.0012737901
-0.00027077433 -0.0018653771 0.0021943043 0.0006737094 0.0003441055 -0.0010187598 0.0011681446 -0.00052534975
0.0003056127 0.0010777555 -0.0013855469 -0.000726158 -9.221712e-05 0.001499181 -0.0017408223 2.0548272e-05
-0.0010660886 -0.0013220534 0.0016257261 0.0019426702 0.00016920095 0.0012325218 -0.0014037348 -0.0012923302
0.00014559692 0.0007829712 0.00015623202 0.0011677259 -0.0008323951 -0.00021710839 0.00027410325 0.0016280706
-0.0012523179 -0.001043961 0.001186912 0.002370925 -0.00021901511 -0.0011266688 0.0015163267 0.0012349545
-0.00083554356 -0.0011371649 0.0014744396 0.0012889765 -0.0007745008 -0.0013109269 0.0019595958 0.0015467315
-0.0007633374 0.0019815634 -0.0015840826 -0.000449142 6.6441926e-06 -0.0013599077 0.0010854377 -8.611922e-05
-0.0011012822 0.0008576552 -0.0011670699 -0.00042655494 0.0008626188 -0.0015093874 0.0017434002 -0.0006757668
0.0011984124 -0.0011491614 0.0011234721 -0.001258299 0.0002881646 -7.769029e-05 -8.68855e-05 -0.00091918925
0.0009970886 -0.00057086785 0.00042717648 -0.0008609439 -0.00020078404 0.0005535204 -0.0013166469 0.0010235495
0.0008079075 0.00059508765 0.0002949946 -0.000665066 -0.0009848268 -0.00035817496 0.0015752349 0.0018003882
8.403874e-05 -0.0014817186 0.0006865879 -4.9818764e-06 -0.0016640035 0.0003938411 0.0004647142 0.0021319177
-0.00085141393 -0.00030893277 0.0002838692 0.0015544844 0.00095206744 0.0018269869 -0.0019388114 -0.0013919453
0.0007753506 0.0006968508 -0.0010771094 -0.0014367336 -0.0014430207 0.001283718 4.0586387e-05 0.0021162487
-0.00088374823 -0.00030200538 0.0014685765 0.0015494998 -0.0009481157 0.0018504944 -0.0016199608 0.00035068305
0.00091972516 0.00036239575 -0.0012941756 -0.00053777185 0.0003337078 -0.0012187612 0.0014229515 0.00034364904
-0.00036584528 0.0014584273 -0.0015303938 0.00036218684 -9.1254995e-05 -0.00050186587 0.000119408265 -7.91264e-05
0.001069397 4.9708284e-05 -0.0007846708 -0.0018959179 -0.00013726935 0.002275232 -0.0021865163 -0.00058944005
-0.00085509574 -0.0013606885 0.001992422 0.001719518 0.00092013064 -0.0010644264 0.00056055986 -0.00071084226
-0.0011111716 0.0015573908 -0.00057403947 0.0020338874 -0.00041874882 -0.00066866627 0.0010748158 0.0013439388
0.0016059523 -3.6172296e-06 -0.0007108031 -0.0021645303 -0.0006827181 0.00027240327 0.0010637887 0.0005162734
-0.0013215977 -0.0004103153 0.00020072292 0.001669424 -0.0006481322 0.00019815446 -0.00013411108 0.0014665253
0.00019758077 0.0015386699 -0.0015563987 -0.0012637641 0.00040635487 -0.0015630699 0.0011381506 -0.00040702493

base_model.model.transformer.h.1.attn.c_attn.lora_A.weight f4 [4, 768]
00000000: 2f25 efbb 8155 d8bc 5517 023d 64ac fb3c
00000010: 3c19 6a3b 26b9 da3c 5d8c 823c 809e 0dbd
00000020: 1d49 e53a 8de4 ad3c 1392 3f3c fbe8 5c3c
00000030: 9f38 bfbb aa91 173c 2b58 c6bc ac20 00bd
00000040: 03e7 133d 5ba2 de3b 197c 1ebc a2f8 f03c
00000050: 07e0 843c 1c4f 11bc 3eda a0bc 7d2a 323c
00000060: 659d a83c 48cf ecbc 9790 ddbc 68aa 0ebc
00000070: 1c06 0f3a 0e28 a4bc 7407 86ba 1eb6 2d3b
00000080: 2d6a 033d 9d23 633c 9289 713c 3642 16bd
00000090: 4a24 98bc 89d9 01bd fca8 483c 6caa e7bc
000000a0: d2fe 4e3c cc89 1bbc d77f afbc 59c2 303c
000000b0: 9bae 3d3b 1d39 083d 03f0 0e3d 922c abbb
000000c0: 7132 9d3c fdb3 043d a85a 0bbd a9aa 833b
000000d0: 201e 003d 6b3c 95bc 3d91 d5bc da28 8dbc
000000e0: 20a9 3c3c 2b24 313c fb27 b43c 291c 8bbc
000000f0: 177c 12bd c072 a4bc 4b42 c2bc 4cc4 d63a
00000100: 9a44 813c 5a0f 0abd d145 c4bc 41b9 a6bc
00000110: 1270 d5bc 186e 403c f972 cabc 1fc7 b0bc
00000120: b6b4 babc 4615 10bc e890 a63c 1edd 913c
00000130: 3f93 863c 5ea4 ff3b 2107 c33c 54dc 113d
00000140: 4661 f7bc 6e50 303c 6508 8b3c eddf 493b
00000150: a5d7 ac3c d930 ce3c 2c66 f13c b66a d1bc
00000160: 3fa3 0c3d 1e5a 173d 291d a6bb eceb 053d
00000170: bf78 71bc 942b 0cbd 6a5e de3c 516b fdbc
00000180: 8723 a03c a442 f9bc 689c a5bc 02c5 b5bc
00000190: ce17 49bc d125 b4bc 8003 f6bc 95ae 8c3c
000001a0: 6148 0f3d 2c0c 8f3c b03d 743c 281f 13bd
000001b0: c04d 4e3b 064f 143d 9176 353c af05 ec3c
000001c0: 6eba 96bc 74ae ebbc 3501 cc3c 9f23 193a
000001d0: 715a a5bc 746e 8a3c 7c10 31bc 2656 04bd
000001e0: 7853 fabc 7022 dcbc 5b63 f5bb 31c8 3dbb
000001f0: 6ebb 543b 2ee7 b3bc 198b f1bc cb00 973c
00000200: 70d2 083c 4131 c43c a911 7b3a 78e0 153c
00000210: a60f 073d a534 1a3c b788 d13c 0dc7 bbbc
00000220: 63ad e13c 2ade 083c 38bf e4bc a9db cbbb
00000230: 153a a7bc 71aa 973c e30e 1b3d 4bda 6e3c
00000240: 13ef 97bc 0bc1 563a b47c 70bb edb0 05bd
00000250: 4c9b 333b 64b0 f13c f71d cd3c 80bf b2bb
00000260: 6a39 d93c 4592 fa3c 6136 e53c eacf e33c
00000270: 44d5 713c 8033 a4bc 01c2 0e3d 5e26 20bc
00000280: 6ac6 f0bb 7bbd 373c ca54 d9bc c96b 78bc
00000290: f442 d23c f71b 213b 837f a23c 8cf9 123d
000002a0: daaa 86bc ccf5 5dbc 160e 703c fb3d 17bc
000002b0: eff3 023d 08b1 bdbc bc82 883c 7e93 79bc
000002c0: eb47 48bc 0757 42bb 75a4 4a3c d54f 803c
000002d0: 847e 4dbc 7664 3f3c aa8e 193c 3c0f 6f3c
000002e0: eca6 b13c 9175 08bd 0eb3 9e38 dcf5 e7bb
000002f0: e90a 07bd 228f 793c e1ba a63c e6d6 1e3d
00000300: 35b8 38bb 3699 c73c 5e21 c9bc 1bf5 a8ba
00000310: ad9d 14bd 52c9 063b 3d68 cfbc e48e 853c
00000320: 608d 043d ec6b eebb 6659 11bd 260a 723a
00000330: 71c3 e93b e0bb 5eba 5266 b6bc c618 1ebc
00000340: 3e12 0b3d aa7a 6dbc bde0 e3bc 875c ee3c
00000350: fa1c 1a3d 670f e53c f7c2 09bc 62f0 83bc
00000360: 43a5 06bd 563f e3bc a037 c2bc 591f cabc
00000370: 2220 d43b 74fc d1bc cfff 163b 33fd 0e3d
00000380: 0174 083d 8b69 003c 2f31 9dbc dee1 163c
00000390: d1f3 0abd 858d 703c d916 5bbc 01f1 a0bc
000003a0: a70e 0fbd 636b aebc 5389 c9bc 9c39 afbc
000003b0: a560 18bb 6429 573c 45be 1d3c 7ae3 3c3c
000003c0: ba17 a9bc da96 873c 78cb c6bc 7498 7abc
000003d0: e5cb 2cbb 8faa 1dbb 5bd6 c5bc 7d28 fdbc
000003e0: f17b 1dbc e59c a63c 4fb6 9fbc bbca e2bc
000003f0: 9539 52bc 1de6 0e3d dfed ad3c e335 7dbc
-0.007298134 -0.026407959 0.031760532 0.03072185 0.0035720607 0.026699614 0.015936071 -0.034574986
0.0017493103 0.021227146 0.011692542 0.013483281 -0.005835607 0.009251038 -0.024211964 -0.03128116
0.03610898 0.0067942566 -0.009673142 0.029415432 0.016220106 -0.008868959 -0.019635316 0.010874388
0.020582864 -0.028907433 -0.027046485 -0.00870762 0.00054559275 -0.02003863 -0.001022561 0.0026506255
0.03208368 0.013863471 0.014742272 -0.036684237 -0.018571991 -0.0317016 0.01224732 -0.028279506
0.012633996 -0.009493303 -0.021423263 0.010788524 0.0028943184 0.033257592 0.03489686 -0.005223819
0.019189091 0.032398213 -0.034022003 0.004018147 0.03127873 -0.018217286 -0.026070232 -0.017231394
0.011514932 0.010811846 0.02199172 -0.016981201 -0.035762873 -0.020074248 -0.023713252 0.0016385405
0.015779782 -0.033706047 -0.023959072 -0.020352008 -0.026054416 0.011744998 -0.024713026 -0.021579323
-0.022791248 -0.0087941345 0.020332769 0.017805632 0.016427634 0.0078015765 0.02380711 0.035610512
-0.03019775 0.010761363 0.016971776 0.0030803636 0.021098921 0.025169777 0.029467665 -0.025563579
0.03433537 0.036951177 -0.005069394 0.032695696 -0.014738261 -0.034221247 0.02714463 -0.030934962
0.01954819 -0.030427285 -0.020216182 -0.022188667 -0.012273742 -0.021990689 -0.030030966 0.017173091
0.034981135 0.017461859 0.014907286 -0.035918385 0.0031479448 0.036208175 0.011075632 0.028811304
-0.018399443 -0.02876971 0.02490292 0.0005841795 -0.020184727 0.016898371 -0.010807153 -0.03230872
-0.03055738 -0.02687189 -0.0074886507 -0.0028958435 0.003246035 -0.021960821 -0.029485272 0.018432995
0.008350953 0.023949267 0.00095775217 0.009147756 0.032973908 0.0094119655 0.025577886 -0.022922063
0.027548498 0.008353749 -0.027923211 -0.006221254 -0.020413438 0.01851389 0.037855994 0.014578412
-0.018546617 0.0008192218 -0.0036695423 -0.032639433 0.0027405797 0.029503055 0.025038702 -0.0054549575
0.026516635 0.030587325 0.027980031 0.027809102 0.014760319 -0.020044088 0.034852985 -0.009774772
-0.0073478715 0.011214609 -0.026529688 -0.015162417 0.025666691 0.0024583319 0.019836193 0.035882518
-0.01643889 -0.013547372 0.014651796 -0.009231086 0.031970914 -0.023155704 0.016663902 -0.015232919
-0.012224178 -0.0029653923 0.012368311 0.015663067 -0.012542371 0.011681667 0.009372393 0.0145910345
0.02168604 -0.033315245 7.5673786e-05 -0.0070788693 -0.03296939 0.015231879 0.020352783 0.038779162
-0.0028185968 0.024365049 -0.024552044 -0.001289043 -0.036283184 0.0020566774 -0.02531826 0.016303487
0.03236139 -0.007276049 -0.035485648 0.00092330796 0.007133894 -0.00084966235 -0.022265587 -0.009649461
0.033952944 -0.014494577 -0.027817125 0.029096855 0.03762529 0.027961446 -0.0084083 -0.016105834
-0.03287245 -0.027740162 -0.023708165 -0.02467315 0.006473557 -0.025633074 0.0023040657 0.03490944
0.033313755 0.007837663 -0.019188492 0.009209124 -0.033923928 0.014682178 -0.0133721465 -0.01964617
-0.034926083 -0.02129144 -0.024601614 -0.021389775 -0.0023250964 0.013132427 0.009627883 0.011528844
-0.020641197 0.016551424 -0.024266943 -0.015295137 -0.0026366648 -0.002405796 -0.024150064 -0.030903095
-0.009612069 0.020338485 -0.019496111 -0.02768456 -0.012831111 0.034887422 0.02123159 -0.015454742

base_model.model.transformer.h.1.attn.c_attn.lora_B.weight f4 [2304, 4]
00000000: 1d02 ff38 9912 f0b9 21ee e7b9 3fb2 f8b7
00000010: b843 fc39 55f8 efb9 c6c1 0739 a46b afb9
00000020: fc2c 90b9 096f b139 ae16 7c3a 17f9 b039
00000030: 8e02 16ba 5d31 453a 5a20 163a 2d15 a939
00000040: d2cd 8139 450c 19ba 5640 52b9 55e5 9cb9
00000050: 43d0 ed39 f84c e2b9 5233 60b9 5c3b 71ba
00000060: c481 60ba d202 583a 4ae5 7f39 5dab 673a
00000070: 4e11 853a 4b29 81ba 7cb9 03ba 76eb 05ba
00000080: f2df 433a da75 7dba 2e3b 97ba f16e 1dba
00000090: 6207 0139 cf06 1939 26a7 f038 0740 feb9
000000a0: 55fe d6b9 b117 9f39 85ad 023a 5316 b939
000000b0: 0b1d 8d39 51ed 9f39 2c4b 193a 5e8b 9b39
000000c0: 8a85 6937 f475 0cba 1197 27b9 8973 72ba
000000d0: 2a9d 9c39 8fbc 78ba dfbd 16ba 0d3a dbb9
000000e0: 7997 363a 8cb8 40ba 8a3c 67ba e601 72b9
000000f0: 2181 903a c289 60ba 463b 16ba c0d0 2fba
00000100: b477 8a39 8170 4dba 1833 be39 c6b8 9e39
00000110: 599c d1b9 584e e839 1298 363a d59b e739
00000120: 1d4f 8539 d6a5 8fb9 d029 ab39 bd04 51ba
00000130: 3d82 fd38 9bee 24ba 77c0 213a b80f 5e39
00000140: b7b1 02ba 811a f6b8 5ead ccb8 a412 46b6
00000150: 60f7 04ba 6117 723a bb26 ad3a 1d7e 763a
00000160: fa50 ab3a 154f cdb9 8fba f9b9 a386 86b9
00000170: fece a9b9 ea6e d5b9 fc51 d339 710b 3038
00000180: 76c1 6539 3ff2 1c38 f373 0fb9 dbff a2b9
00000190: 9305 1bba 3a19 61b9 1f17 0c3a 72a6 303a
000001a0: 74f1 8d39 8a34 11b8 3db3 1a3a bcee ddb7
000001b0: a361 5cba 45e6 e239 caa2 db39 2816 c9b9
000001c0: c8d9 0d39 fa77 d5b8 a566 e037 5205 b6b9
000001d0: a494 1bb8 8a49 48b7 1610 b337 0d3c 2a39
000001e0: 0b7b 89b9 6882 1bb6 6a86 9cb9 de93 04ba
000001f0: 74a2 c9b9 8782 4839 a186 b7b8 7e6e cd39
00000200: f957 b539 b1aa adb9 9a80 00ba c034 14ba
00000210: c956 cab9 ade2 cf39 cd1e 6139 dd7d 4e3a
00000220: ed65 ba3a d033 92ba 38cf 84ba 3418 a9ba
00000230: a645 153a 9c6c 6fb9 4105 07ba aff8 aab9
00000240: cf09 a1b9 3029 bbb9 c9a3 7239 8a3f fc39
00000250: 10ce 8a3a 19b0 8dba 0fec 99ba 7cc8 62ba
00000260: 6fa4 22ba b7e5 0f3a 092b 023a e606 1d3a
00000270: aebc 4637 7ed3 1a39 0fc2 4a3a 0f8f ba38
00000280: eb10 f6b8 c6d1 9938 b1b8 3138 219c a0b9
00000290: b844 5436 fa1a 1ab9 2381 27ba 2f9b 5e39
000002a0: 047e 3e39 7789 0fb9 1ab0 c9b8 502c d1b9
000002b0: c06d 15ba ee00 9039 4264 8b3a 7459 c239
000002c0: bd19 16ba 66b5 a73a 3a67 9739 a4a6 b13a
000002d0: 0f4f a538 e6fa 2aba b91d 30ba ad41 3eb9
000002e0: 24ce 1039 e811 0e3a fae9 2139 e8b0 0839
000002f0: d76e 44b8 18ad d439 4a30 043a 3b3f 9f39
00000300: 4c80 8d39 8218 06ba c0b2 20b8 36f0 08ba
00000310: dba8 543a 9c33 60ba f1d8 0aba 6249 00b8
00000320: a29d 19ba d057 7139 f173 94b8 a1b9 eeb8
00000330: a7a2 a239 fa0d 99b9 429c 2dba b1a9 efb7
00000340: 8171 8037 a6e1 35ba 38c3 5c39 09a4 53b9
00000350: db32 523a 5d4b aeb9 e766 1eba 9615 e9b9
00000360: 8994 ae39 2974 ceb9 ebad 5cba 6534 69b9
00000370: 8f60 c6b9 40bb e036 ffb1 d938 bc62 b4b9
00000380: d4f2 073a 2f49 b4b9 002c 90ba 9910 aab9
00000390: 0e9f 6d38 7ef5 2ab9 4ab8 7138 cbd7 b039
000003a0: c13e 9739 e0e7 dfb9 04c6 9a37 9792 88b8
000003b0: 45c6 49ba 1082 9139 db6c 8d39 26ec dfb9
000003c0: 0ab3 12b9 4e68 2aba 289f 3fba 414f 1839
000003d0: c607 c6b9 d9bd 873a c58c 543a 5a27 1e3a
000003e0: 1be0 3e3a a8b9 97b9 8ad0 dab9 b84e 9eba
000003f0: 5d95 f5b9 5fcb 003a 7ba2 1e38 a02d ab39
0.00012159741 -0.00045790224 -0.00044237173 -2.9646906e-05 0.0004811564 -0.00045770654 0.0001294679 -0.000334588
-0.00027499336 0.00033842798 0.00096164166 0.00033754922 -0.00057224266 0.00075223093 0.00057268667 0.0003224997
0.00024758145 -0.0005838315 -0.00020051128 -0.00029925504 0.0004535933 -0.00043163425 -0.00021381423 -0.00092022656
-0.00085642585 0.00082401664 0.00024404112 0.0008837486 0.0010152252 -0.0009854225 -0.0005024893 -0.0005108634
0.000747203 -0.00096687453 -0.0011538023 -0.0006005606 0.00012305149 0.00014593753 0.000114752256 -0.0004849436
-0.00041006753 0.00030344495 0.0004984963 0.00035302583 0.00026915254 0.00030503658 0.00058476883 0.0002966774
1.3918974e-05 -0.00053581526 -0.00015982638 -0.00092487835 0.00029871735 -0.00094885466 -0.0005750339 -0.00041814186
0.000696532 -0.00073517184 -0.00088209717 -0.00023079626 0.0011024812 -0.00085654494 -0.00057308783 -0.00067068264
0.00026410597 -0.0007836894 0.00036277692 0.00030273775 -0.00039980075 0.0004430886 0.0006965409 0.00044175857
0.0002542668 -0.00027398643 0.00032646814 -0.00079734233 0.00012088239 -0.00062916585 0.0006170342 0.00021177426
-0.0004985588 -0.00011735131 -9.75977e-05 -2.951515e-06 -0.0005072262 0.0009235051 0.0013210395 0.00094029476
0.0013070398 -0.00039159568 -0.00047631978 -0.00025658784 -0.00032388413 -0.00040709163 0.0004030614 4.1972326e-05
0.00021911212 3.7418908e-05 -0.00013680737 -0.00031089675 -0.00059136114 -0.0002146707 0.00053440215 0.00067386695
0.00027073512 -3.4619625e-05 0.00059013424 -2.6456422e-05 -0.0008406883 0.00043277643 0.00041892222 -0.00038354215
0.00013527938 -0.00010178979 2.6750678e-05 -0.0003471771 -3.7093312e-05 -1.1938051e-05 2.1345953e-05 0.00016234834
-0.0002622235 -2.3172706e-06 -0.00029854785 -0.00050574343 -0.00038458745 0.00019122112 -8.7511966e-05 0.0003918297
0.00034588555 -0.00033124306 -0.00049019756 -0.00056536123 -0.00038593102 0.00039651003 0.00021469146 0.00078770315
0.001422105 -0.0011154357 -0.0010132557 -0.001290089 0.00056942774 -0.00022833276 -0.0005150624 -0.0003261021
-0.0003071562 -0.00035698107 0.00023139933 0.00048112526 0.0010589976 -0.0010809927 -0.0011743325 -0.00086510903
-0.0006204312 0.0005489247 0.0004965519 0.00059901027 1.184565e-05 0.00014765371 0.00077346055 8.895818e-05
-0.00011733345 7.334682e-05 4.2372096e-05 -0.00030633903 3.1630461e-06 -0.00014696634 -0.00063897873 0.0002122938
0.00018166756 -0.00013688752 -9.617228e-05 -0.00039896602 -0.0005700253 0.00027466513 0.0010634738 0.0003706921
-0.0005725881 0.001279515 0.00028877874 0.0013553691 7.882539e-05 -0.0006522372 -0.0006718296 -0.00018144278
0.00013809704 0.00054195384 0.0001544132 0.00013035873 -4.683327e-05 0.00040564756 0.0005042596 0.00030373954
0.00026989204 -0.0005115346 -3.8313447e-05 -0.00052237825 0.00081123196 -0.0008552612 -0.0005296609 -3.058592e-05
-0.0005859976 0.00023016264 -7.078786e-05 -0.000113833004 0.00031020233 -0.00029192847 -0.00066227105 -2.8570039e-05
1.5311643e-05 -0.0006938226 0.0002105356 -0.00020183636 0.00080184423 -0.00033244016 -0.00060425553 -0.00044457306
0.00033298534 -0.00039377928 -0.000841825 -0.0002224013 -0.00037837445 6.697519e-06 0.00010380521 -0.00034405838
0.00051860255 -0.000343868 -0.0010999441 -0.00032437293 5.6653334e-05 -0.00016303916 5.763051e-05 0.00033730114
0.0002884772 -0.00042706635 1.8450439e-05 -6.51229e-05 -0.0007697086 0.0002775346 0.0002697472 -0.0004270982
-0.00013990342 -0.0006500528 -0.0007309788 0.00014525374 -0.00037771295 0.0010356262 0.00081081345 0.00060330855
0.0007281319 -0.0002893929 -0.00041735574 -0.0012077903 -0.00046841326 0.0004913117 3.7821457e-05 0.00032649655

base_model.model.transformer.h.10.attn.c_attn.lora_A.weight f4 [4, 768]
00000000: 2228 febc b2f8 5abc cfa2 25bc e23c 43bb
00000010: 24cd febb 7670 a43c ac48 1a3d 3fce 373a
00000020: 109e 98ba 98ec f23c 6522 debb 07b5 ed3c
00000030: ab00 d8bc 8197 33bb d913 c6bc 718a c2bc
00000040: 913a e23b 5afe 003d 870a 8f3c 470c da3b
00000050: 27ea 943b 8cfa afbc df4c 7e3c 3012 353c
00000060: 60f2 58bc 856c 06bd 45c3 eb3c 9009 9d3b
00000070: 4793 ef3c 05a9 4b3b 74fc 42bb d085 d8bc
00000080: 7192 b73a 2fb1 10bc 0b08 b5bc aa06 f93c
00000090: 0286 933c 99e5 a73c 7235 8a3c 788f 903c
000000a0: 7696 5ebc 29c0 613c 10fe 1fb9 9b70 d8bc
000000b0: b5be b73c 70e0 8abc d2b0 92bc 2269 e0bc
000000c0: 0086 b83c 4171 693b 234f ff3c 6a18 3ebc
000000d0: 2e9e ef3b 48e2 203c 11c6 dd3c fcdd 893b
000000e0: 231c d0bc c545 97bc da97 8cbc c65c 9bbc
000000f0: 8fed d0ba c7b0 e8bc 07d3 353b 0ae7 f8bc
00000100: 69ff e9bc bff5 f23b 4e03 f33c a670 9bbc
00000110: febf b5bb 1d4b bcbc 9fcc a83c f04c b33c
00000120: 4905 ce3b 52f5 8c3c 150a bd3c b2c1 1e3c
00000130: 4394 c83c d46b c5bb f0bc dcbc 7bac a03c
00000140: c6da c4bc a86e c03c 9938 a5bc f957 983c
00000150: 2ea6 863c 2efc 02bd ccef 613c 9987 28bc
00000160: 27e3 1ebc 9376 16bd 5f3a ccbc 2ab8 0ebd
00000170: d87f 9e3b 9ad6 133d b1d9 5dbc 8fec 0ebd
00000180: fc2c 39bc cdec 1c3d 3a8d bdbb 6614 113d
00000190: 157e d13c 28d8 b53c d794 94bc 9b69 f13c
000001a0: 0808 91bc 224f 573c ec7e b8bc 9c3a ec3c
000001b0: c5d5 c93c 96b5 e63c 73b8 96bc 056f d53c
000001c0: 8a6c 35bc 6388 f13b 95a8 f03c 9b9d 343c
000001d0: 1c72 a63c e5dc 123c 1543 d6bc 3367 4cba
000001e0: 4694 31bc 973a f23c d511 1a3d 46b6 883c
000001f0: a251 023d d127 493c f265 acbc ad5f 543c
00000200: 6d63 c7ba 8cbf 5abb 77d3 54bc bb13 7eba
00000210: 17a2 7bbc c887 e63c 5fbc ab3c af7c 8ebb
00000220: 90db b43c 9fa3 ce3c 3336 a6bc 7768 ee3c
00000230: dc4d bebc d572 93bc 5aa2 0c3d 9a57 d53c
00000240: 12af 1b3c da26 013c 5258 903b d19f dfbb
00000250: fd95 b93b e99e 0d3d 204e e2bc b3be 4a3c
00000260: cdbc 8aba 35ce 58bb dc2b d2bc 409d 10bb
00000270: d997 7f3c 30e6 e83c c034 4c3c a5cd 1bbc
00000280: c7f7 b73c c6fa 92bc 1e1b 073d 7394 0cbd
00000290: ea32 bdbc 5382 dabc 876a 7a3c 6d31 98bc
000002a0: 0a18 c93c c96d 713b 54f9 03bd 0806 97bc
000002b0: 73a8 de3c 37f0 e9bc 0e4b 7c3c f52b c6bb
000002c0: de1c cf3c fbf0 613c 3d1d aabc 82b0 aebc
000002d0: ba44 e63c 8009 913b 277d e2ba e718 8fbc
000002e0: bcbc 153c 3ede 61bb dfb3 e7bc 8982 6f3c
000002f0: 0ae8 49bc 317b 083d bcc4 063c 6b85 c23c
00000300: d346 ea3c 0d3c 0c3d 3450 66bc 91f8 f23c
00000310: 0936 bbbb d9c1 df3c 50d2 e33b afe6 cd3c
00000320: 0adf 11bc 76c2 653c ce37 48bc f6f3 0a3d
00000330: d513 09bd 22f2 a5bc 0602 8d3b fd3a fabb
00000340: b3eb 0b3d 2bbb 11bd 6c9a 3bbc e5bb 20bc
00000350: 1c15 8fbc d0cb ce3c 2d58 03bd 9fac 063c
00000360: 32c3 84bb 7b6e 973c 66bc f43b c2a2 65bb
00000370: 5a15 ac3c 9318 c03c df86 673c 4398 b1bb
00000380: 5ca6 9ebc 0da0 123c de89 143b 5884 e03c
00000390: d9ee 0f3b 810a 9d3c d6d8 b13c e049 0d3c
000003a0: 05e4 dd3c 0914 bb3c 5f41 12bd 1a13 b239
000003b0: 968d c43b 61a8 0abd 4017 493c 422e f0bc
000003c0: 1d34 77bc d818 c3bc 1215 97bc 5654 5bba
000003d0: 57a1 0c3d cba6 223d 1664 033d 08b0 d73c
000003e0: 879c 5bbc 6d11 c2bb f485 eb3b f4e5 883c
000003f0: d89b b3bc c2f7 b1bc 2667 fc3c 2d7f 49ba
-0.031024996 -0.013364958 -0.010109617 -0.0029790928 -0.0077759195 0.020073157 0.03766696 0.0007011629
-0.0011643786 0.029653832 -0.0067790025 0.029016985 -0.026367506 -0.0027403536 -0.024179386 -0.023747655
0.0069039543 0.03149257 0.017461075 0.0066542956 0.0045445147 -0.021481775 0.015521257 0.0110516995
-0.01324138 -0.032818336 0.028779635 0.0047923997 0.029245032 0.0031076085 -0.0029752525 -0.026430994
0.0014005435 -0.008831306 -0.022098562 0.030398685 0.018008236 0.020495223 0.016871188 0.017646536
-0.013585677 0.013778725 -0.00015258067 -0.026420882 0.022429803 -0.016952723 -0.01790658 -0.027393881
0.022524834 0.0035620483 0.031165665 -0.0116025 0.0073125577 0.009819575 0.027071984 0.004207371
-0.025404042 -0.018465886 -0.017162252 -0.018965136 -0.0015939939 -0.028404607 0.002774419 -0.030383606
-0.028564172 0.007414549 0.029664662 -0.018974613 -0.005546569 -0.022985036 0.020605383 0.021887273
0.006287251 0.017206822 0.023076097 0.009689735 0.02448476 -0.006024817 -0.026945561 0.019613495
-0.0240301 0.023490265 -0.02016859 0.018596636 0.016436663 -0.03197878 0.013790082 -0.010286235
-0.009697712 -0.036734175 -0.024930177 -0.0348436 0.0048370175 0.036093332 -0.013540671 -0.03489357
-0.011302229 0.03831177 -0.005784658 0.035419844 0.025572816 0.022197798 -0.018137379 0.029469302
-0.017704025 0.013141425 -0.022521459 0.02883654 0.024638066 0.028162759 -0.0183985 0.026053915
-0.011073241 0.007370995 0.029377261 0.011023904 0.020318083 0.008963798 -0.026155034 -0.00077973603
-0.010838574 0.029568953 0.037614662 0.016688477 0.031816132 0.012277559 -0.021044705 0.012962264
-0.0015212126 -0.003337833 -0.01298987 -0.0009692271 -0.015358469 0.028140917 0.020963846 -0.0043483595
0.022077352 0.025224505 -0.020289516 0.029102547 -0.023230486 -0.017999092 0.034334518 0.026042748
0.009502189 0.007882798 0.00440506 -0.0068244715 0.005663632 0.034575377 -0.027625144 0.012374568
-0.0010584831 -0.0033081893 -0.02565568 -0.0022066385 0.015600168 0.028430074 0.012463748 -0.009509479
0.022457017 -0.017941844 0.032984845 -0.03432126 -0.023095567 -0.026673472 0.015284187 -0.018578256
0.024547596 0.0036839119 -0.0322202 -0.018435493 0.027179932 -0.028556926 0.015398754 -0.0060477206
0.02528232 0.013790364 -0.020765895 -0.0213244 0.028108943 0.0044261813 -0.001727973 -0.017467929
0.009139236 -0.0034464742 -0.028284011 0.014618524 -0.012323389 0.03332061 0.008225616 0.02374526
0.028598225 0.034236956 -0.014057208 0.029659541 -0.0057132286 0.027314113 0.0069525614 0.025134413
-0.008903274 0.014023414 -0.012220336 0.033924066 -0.03346618 -0.02025706 0.0043032197 -0.0076364265
0.034160327 -0.035578888 -0.011450391 -0.009810423 -0.01746612 0.02524367 -0.032066513 0.008219867
-0.0040515894 0.018485298 0.007468748 -0.0035039638 0.021006275 0.023449218 0.014131277 -0.0054197623
-0.019366436 0.008949292 0.0022665183 0.027406856 0.0021962433 0.019170048 0.02170984 0.00862357
0.027086267 0.022836702 -0.035706874 0.00033965037 0.0059983237 -0.033851985 0.01227361 -0.029318932
-0.015088108 -0.023815557 -0.018442664 -0.0008366754 0.034333553 0.039709847 0.03207787 0.026329055
-0.013404018 -0.0059224875 0.0071875993 0.016711213 -0.021924898 -0.021724585 0.030810904 -0.0007686492

base_model.model.transformer.h.10.attn.c_attn.lora_B.weight f4 [2304, 4]
00000000: 4ce5 813a 873e 5cba d654 84ba c0f7 c639
00000010: d7c0 cfb9 0a0e afba 6c10 8b3a dc58 aaba
00000020: 4444 98ba e445 a03a c0c9 fd39 1904 c53a
00000030: e7e2 e6ba f811 ff3a 732b 2c3a 51d7 a23a
00000040: 978f 1d3b de3d 0bbb d901 57ba aca7 ecba
00000050: fb25 fcba 2c4e d43a 7547 de3a 0f24 1d3a
00000060: e71b 03bb 9637 fb3a f26c 9d3a cdfc 943a
00000070: 2ee6 fcba 955e e43a 4e31 9f3a bb36 ab3a
00000080: 2154 2739 0475 a13a a9df 5ab8 961e 963a
00000090: 1d40 6439 7b74 323a 7bec 37ba eb0f c53a
000000a0: 0cfa 6937 0257 593a 4e7d 993a ceb6 cab9
000000b0: 3f7b 053b c510 a5ba 1544 32b9 3cc2 98ba
000000c0: 58f5 0d3b 3f71 81ba 44dd 8eba c6c6 2eba
000000d0: b987 a5ba f511 eb3a 875e b03a 161f 793a
000000e0: 15cf 10bb 15d2 093b 168e 8f3a e238 ea3a
000000f0: a7b1 a03a d0c5 9dba 186a abba 003b 9db8
00000100: af97 693a 951a cdba 79c4 7cba eadd 98ba
00000110: b472 1abb e899 f33a 474f 7c3a 5a00 bb3a
00000120: 6852 023b b0b3 f8ba c6fd 7cba 026f baba
00000130: 1ef7 98ba 0f6a 0e3a 0d90 903a c117 fcb7
00000140: d393 0e3b 74dd 03bb d619 83ba 1866 bbba
00000150: a1b2 023a 54ee adba d2ab a1ba e5e9 3dba
00000160: df0c 273b bce5 e4ba 0dcc 46ba 1145 a3ba
00000170: d3bb e7b9 9e80 9aba b057 563a c337 e9ba
00000180: 460e 223b 7fe7 f5ba 0fad 6dba e14a cbba
00000190: 7eae e23a c6db ccba 0bfd f2ba dbd4 51ba
000001a0: a737 a8ba e1f1 5c3a b45c d73a e464 7d39
000001b0: 7d79 fab9 db65 e6ba 3c69 0c3a a3fd a4ba
000001c0: cfe3 7e39 8e80 edb9 ab8c adba 43ab 363a
000001d0: 8e11 18bb 22df c03a 5dd8 8738 0f16 7f3a
000001e0: d180 c73a 6169 c2ba 6959 b1ba ffd0 1eba
000001f0: 22ff 00ba 50d4 5e3a b924 953a 3506 37ba
00000200: c4a7 ab3a df2d d5ba 43ee b239 53b5 b6ba
00000210: b723 053b 7b6b 07bb fee0 52ba 90aa 9bba
00000220: 3b57 233b 0750 d1ba 5c6a f1b9 aca0 c5ba
00000230: 80a7 08ba 168d cf3a aac7 a039 6c35 bf3a
00000240: 9405 e1ba 6e56 d23a 7d92 7cba 85a8 903a
00000250: 56b3 95ba 65ef 803a 0cb1 543a f7a8 8439
00000260: 717f ee3a b98f 93ba 60ef 30ba 2c7b 4fb7
00000270: 2fa2 dbba 462e 9d38 abed 883a 97f4 c0b9
00000280: d6d6 b639 3751 4fba 9016 b439 429e beba
00000290: b5cc 0dbb d4db c03a 9bd0 2cba 5b95 933a
000002a0: 95ed 103b 173f bbba 51c3 49ba 534f 8fba
000002b0: c1e8 1c38 2847 bb39 715a 8eb9 b788 a43a
000002c0: 39c9 733a 7b0f d9b9 5656 c6ba cc67 1d3a
000002d0: dd3f be3a 04a5 29ba e687 663a 2c1c 1cba
000002e0: 0918 7c39 0ee5 66ba c9a8 99ba 9ea1 32ba
000002f0: 2276 0dbb c748 d63a 472e 873a 8398 b23a
00000300: b208 2db9 25b3 1439 1115 86ba 0b0c 613a
00000310: c074 ddba aab7 763a ac76 94b9 3cd3 673a
00000320: 8393 9a39 b5b4 3aba ce9a 04ba b329 0339
00000330: c924 02bb 2182 023b 1d4b a939 67be ca3a
00000340: e584 223a 166e db3a 781d 93ba a1d3 7c3a
00000350: 3c7f 76ba c41a bf38 c48d b23a ea75 45ba
00000360: eff9 caba 5513 0d3b 9f4e 993a 5b1c bb3a
00000370: 0294 e6ba bc29 0b3a 3448 f23a 47ed b9b9
00000380: f91f f5b9 026f a7ba b82d 003a 9e87 bcba
00000390: 538e 39b9 bf62 10ba 65d3 b93a 7062 23ba
000003a0: c599 c83a 6a9d 2cb9 68d1 cdba b11d 43ba
000003b0: 5522 dbba 9721 f53a 455c 1b3a 7dcb 873a
000003c0: 2513 ee3a 006d edba 8505 76ba a3cc c7ba
000003d0: 460f f53a eb81 9dba ee2c afb9 c29f 5dba
000003e0: b2b5 043b 0263 0dbb abc1 f1b9 610b 9dba
000003f0: 0961 773a 4e63 99ba d55a b0ba db72 21ba
0.0009910255 -0.0008401651 -0.0010096084 0.0003795009 -0.00039625794 -0.0013355624 0.0010609752 -0.0012996453
-0.0011617024 0.001222786 0.00048406236 0.0015031128 -0.001761523 0.0019460311 0.0006567754 0.0012423788
0.0024041885 -0.0021246593 -0.00082018744 -0.0018055341 -0.0019237393 0.0016197613 0.0016958552 0.0005994448
-0.0020005645 0.0019166346 0.0012010618 0.0011366844 -0.0019294673 0.0017423207 0.0012145431 0.0013062576
0.00015957702 0.0012318199 -5.218355e-05 0.0011453207 0.00021767658 0.0006807518 -0.00070161343 0.0015034651
1.3946101e-05 0.0008290858 0.0011710317 -0.00038664642 0.002036765 -0.0012593499 -0.00017000765 -0.0011654566
0.002166113 -0.0009875669 -0.0010899683 -0.0006667193 -0.001262895 0.0017934429 0.0013455906 0.00095032284
-0.0022096087 0.002102976 0.0010952379 0.0017869736 0.0012259976 -0.0012037102 -0.0013077883 -7.497333e-05
0.0008910847 -0.0015648181 -0.0009642314 -0.0011662815 -0.0023566904 0.0018585296 0.00096248504 0.0014267073
0.0019885544 -0.001897445 -0.00096508523 -0.0014223757 -0.0011670326 0.0005432674 0.0011029259 -3.0051802e-05
0.002175559 -0.002012101 -0.0010002207 -0.0014297394 0.0004985724 -0.001326988 -0.0012334532 -0.0007244631
0.002548985 -0.0017463486 -0.00075835065 -0.0012456496 -0.00044199693 -0.0011787598 0.00081765186 -0.0017793108
0.0024727746 -0.0018761008 -0.000906662 -0.0015509987 0.0017294434 -0.0015629462 -0.0018538547 -0.0008004435
-0.0012833969 0.0008428377 0.0016430826 0.00024165545 -0.00047774232 -0.0017577963 0.00053562573 -0.0012587797
0.00024308193 -0.00045299943 -0.0013240775 0.0006968269 -0.0023203823 0.0014714936 6.4776024e-05 0.0009730765
0.0015220885 -0.0014832431 -0.0013530675 -0.00060583645 -0.000492083 0.0008500265 0.0011378742 -0.0006981821
0.0013096263 -0.0016264281 0.00034128324 -0.0013939537 0.0020315477 -0.0020663429 -0.00080443907 -0.0011876393
0.002492382 -0.0015969285 -0.00046046346 -0.0015077791 -0.0005212948 0.0015834894 0.0003066634 0.0014588065
-0.00171678 0.0016047487 -0.00096348656 0.0011036551 -0.0011421244 0.000983697 0.000811354 0.0002530289
0.001819594 -0.0011258043 -0.0006749537 -1.236684e-05 -0.0016756709 7.4949625e-05 0.0010446807 -0.00036803327
0.0003487381 -0.00079085253 0.00034349086 -0.0014543014 -0.0021636907 0.0014713951 -0.0006592364 0.0011259721
0.0022114266 -0.001428577 -0.0007696646 -0.0010933675 3.7410067e-05 0.00035720435 -0.00027151735 0.0012552951
0.0009299699 -0.00041401 -0.0015131931 0.00060045416 0.0014514882 -0.00064714276 0.0008794054 -0.00059551257
0.00024041547 -0.00088079355 -0.0011723276 -0.0006814244 -0.0021585305 0.0016348594 0.0010313474 0.0013625774
-0.00016501805 0.00014181116 -0.0010229667 0.00085848634 -0.0016895756 0.00094115234 -0.00028317177 0.0008843427
0.00029483074 -0.00071222644 -0.0005058468 0.00012508668 -0.0019858351 0.0019913989 0.00032290156 0.0015468121
0.00061996124 0.0016741182 -0.0011223992 0.0009644572 -0.00094031147 9.112575e-05 0.0013622572 -0.0007532524
-0.0015485863 0.0021526415 0.0011696405 0.0014275418 -0.0017591717 0.0005308648 0.0018484653 -0.00035462735
-0.00046753863 -0.0012774172 0.0004889625 -0.0014383679 -0.00017695995 -0.00055078784 0.001417738 -0.0006232625
0.0015304616 -0.0001646184 -0.0015702667 -0.0007443084 -0.0016718606 0.0018702027 0.000592653 0.0010360327
0.0018163664 -0.001811415 -0.0009384978 -0.0015243482 0.0018696568 -0.0012016868 -0.00033412076 -0.0008454287
0.00202499 -0.0021573906 -0.00046111396 -0.0011981541 0.00094367616 -0.0011702569 -0.0013454804 -0.00061587774

base_model.model.transformer.h.11.attn.c_attn.lora_A.weight f4 [4, 768]
00000000: e3f5 c5bc ce84 0b3d 0a40 a93c 02c2 d1bb
00000010: c4f9 19bd 5c8d ddbc 438e 053d 2f46 ef3c
00000020: 4e9c 09bd 787a 853c f689 0bbd 689a 7e3c
00000030: a568 1b3d db5f fcbc f2d8 66bc 40d9 003d
00000040: 3855 e1bc b72b 25bc f822 083d ca1e 97bb
00000050: cf15 ec3b 405c 8e3b 0cfd 853c afbf 013d
00000060: 3378 54bc c81f 9cbc fb41 3abc 20a1 f23c
00000070: 1ede 64bc b330 0bbc 2b98 02bd a242 1f3c
00000080: 2073 163d f2ba d2ba 4e58 faba c58e a6bc
00000090: 2a2b e1bc 4b6a 833c ce7f 93bc ba00 2539
000000a0: 9ad7 01bd 5013 203d 23a2 c5bb 7ca1 42bc
000000b0: 8685 8fbc a4e5 2abb 2d90 2f3c 7420 29bc
000000c0: 41d4 9ebc 1229 483c 1f2a fabc 1f66 ebbc
000000d0: 9a2b d0bc 97a6 02bd dc52 65bc d865 b7bb
000000e0: 4708 f13c ec30 ce3b 9ad2 ac3b 04c7 9c3c
000000f0: f19b f93c 02c6 9bbc 498e 69bb c32b 873c
00000100: 6fd1 013d ffad d03c cc2f cfbc edb0 203d
00000110: 974b 3f3c be93 7c3b 268e acbb 5ed5 b4bc
00000120: aeee dcbc c310 ac3c 27df 973c 2f27 513c
00000130: b64c 3cb7 6ec1 6c3b 2de9 923c e2db da3b
00000140: 09d2 bdbc b19f 003c c13c d3bc 4c8f 6fbc
00000150: 97a5 e73b afc4 b33b 55f2 5b3c 0eaf e23c
00000160: f6aa ea3c db3d b1bc f7d8 d63c ced1 6b3b
00000170: 2b73 a0bc f9ea 9e3c 81b8 aebc 92ba 363c
00000180: b06f b93c 5dba 8a3b 5b91 e6bc eece 79bc
00000190: 5d5d 363c 0ce5 193d 94b7 913c 873d d53c
000001a0: b362 0dbc e9f4 94bb c754 ec3c eba9 efbc
000001b0: 41b5 ebbc 4374 d33b a113 40bc 0317 fcbc
000001c0: 58b0 18bc 81a4 01bb 2181 f5bc d573 fb3c
000001d0: 85f0 14bd 30c1 1f3b 5095 a8bb 7cb1 4e3b
000001e0: 10bf 0e3d ab59 dfbc 78fa 0abd 3145 e0bc
000001f0: 51e9 073d 577d c7bc 7f85 71bc f9ce cf3c
00000200: b45f e7bc 97c8 4dbc 7b85 adbc febb 6b3c
00000210: 5bce 3cbb 2983 6bbc 156b 313c b616 c139
00000220: 3ee7 ea3c cdfc 763c 5bca e0bc 35a2 f83b
00000230: fdc5 b1bc 956a c3bb 4f46 be3b da01 28bc
00000240: 8ba5 193c b1ec 99bc a001 0cbc f600 a93c
00000250: f8d2 cf3c 31f2 aa3b b110 0bbd e879 c8bc
00000260: 3a50 d3bc 63a7 c4bc dbf4 743c ed78 cd3c
00000270: ab12 dbbb bb96 01bd ab94 8c3b f82f 193d
00000280: f577 963c b00e 043c ee98 623c df80 ee3c
00000290: 6f70 93bc 91c5 da3c 9481 fabc e07e 1fbd
000002a0: 7f69 493c 4cb8 d0bb 49b7 1a3d e84d 25bc
000002b0: 37a6 713b 092e f43c c904 d03b 5210 d5bc
000002c0: 5874 06bd 916d f3bc a040 aa3b 9b8c 18bd
000002d0: 2654 e0bc 72cd 14bc 7817 65bc cbec 353c
000002e0: b581 f2bc 8370 0fbd 0bea 1d3c 9d0e 903c
000002f0: 5057 893c f548 60bc dff2 d6bc f77e 423c
00000300: 5f50 9fbc 1788 f93c 1672 713c c24c 6c3c
00000310: 1c1b 8a3c e4e1 9a3c ef11 6bbc a7ba 833c
00000320: 63b5 e03c f20c dfbb 4523 ef3c c4d2 9c3c
00000330: 62c8 113d 5ddc 5cbc ac48 493c 5489 86bb
00000340: 6922 1cbd 6241 dfbc 45a4 fbbc 8f02 193b
00000350: 5fad fcbb 3003 13bd 7f3b 4a3c 3ac2 1f3c
00000360: d374 b0bc e192 be3c d26d 11bd f457 cc3a
00000370: a272 00bd 6514 96bc a31f b33c 9bde 903c
00000380: aef7 1cbc c4fa 2bbc 44ce 58bc 4c46 03bc
00000390: 0060 1ebd 10d6 d23c 6f21 453c 6bbd 183c
000003a0: 2a78 ed3b 41fb fcbc 05aa ffbc 5c04 f7bc
000003b0: d534 d63c dcaa 443c 5630 48bc 821a be3c
000003c0: 9864 bdbc fce5 0dbc 447d 01bd 9f5d 2dbc
000003d0: ced6 8cbb 4000 1cbc d180 c03c 38aa 3f3c
000003e0: d25e bb3c d119 a1bc 0349 05ba ef4d 3c3c
000003f0: 38b7 aa38 f1e1 bfbc b46c 1cbd 73c1 ab3b
-0.0241651 0.0340622 0.020660419 -0.0064013014 -0.03759171 -0.027044944 0.032606374 0.02920827
-0.03359633 0.01629375 -0.034067117 0.015539743 0.037941594 -0.030807426 -0.01408981 0.031457186
-0.027506456 -0.010081223 0.033236474 -0.0046118246 0.007204748 0.004344493 0.016356014 0.031676944
-0.012968111 -0.019058123 -0.01136827 0.029617846 -0.0139689725 -0.0084954975 -0.0318834 0.009720476
0.036730886 -0.0016077443 -0.0019099803 -0.02033175 -0.027486403 0.016041895 -0.018005278 0.00015735897
-0.031699754 0.039080918 -0.006031291 -0.011879321 -0.017519724 -0.0026076818 0.0107155265 -0.010322679
-0.01938832 0.012216823 -0.030537663 -0.028735219 -0.025411416 -0.031897154 -0.013996806 -0.0055968575
0.029422892 0.006292453 0.005274129 0.019137867 0.030469866 -0.019015316 -0.0035637787 0.01650036
0.031693872 0.025473593 -0.025291346 0.03923123 0.011675737 0.003854021 -0.005265969 -0.022074398
-0.02696928 0.021004086 0.018539025 0.01276569 -1.1223534e-05 0.0036126035 0.017933453 0.006679044
-0.023171442 0.007850573 -0.025785806 -0.014621567 0.0070693004 0.005486093 0.013424476 0.027671363
0.028645974 -0.02163594 0.026226504 0.0035983208 -0.019586166 0.019399153 -0.021328213 0.01115288
0.022636265 0.004233642 -0.028145483 -0.01524709 0.011130658 0.03757195 0.017787732 0.026030315
-0.008629489 -0.004545797 0.028849019 -0.029255828 -0.028772952 0.0064530685 -0.01172343 -0.030772692
-0.009319387 -0.001978189 -0.0299688 0.030694881 -0.03636219 0.0024376623 -0.0051447526 0.0031538894
0.03485018 -0.027264437 -0.033930272 -0.027376743 0.033181492 -0.024351759 -0.014741301 0.025367247
-0.028243877 -0.012560031 -0.021181813 0.014388083 -0.002880952 -0.014374533 0.010828753 0.0003682875
0.028674718 0.015074921 -0.02744024 0.007587696 -0.021700853 -0.0059636333 0.0058067213 -0.010254348
0.009377847 -0.018789621 -0.008545309 0.020630341 0.025369152 0.0052168597 -0.033951465 -0.024472192
-0.025795091 -0.024005597 0.014950956 0.025082076 -0.006685575 -0.03163789 0.0042901835 0.037399262
0.018367747 0.008060142 0.013830407 0.029114185 -0.017997948 0.026705535 -0.030579366 -0.038939357
0.012293219 -0.006369626 0.03777245 -0.010089375 0.0036872753 0.029807108 0.0063482267 -0.026008759
-0.032825798 -0.029715331 0.005195692 -0.037243467 -0.027383875 -0.009082185 -0.013982646 0.011103819
-0.029602865 -0.03501941 0.00963832 0.017585093 0.016765267 -0.013689269 -0.026238857 0.011871091
-0.019447504 0.0304604 0.014736673 0.014422597 0.01685863 0.018906541 -0.014347537 0.016080214
0.027430242 -0.006806963 0.029191623 0.01914347 0.03559149 -0.013480273 0.012285393 -0.0041057263
-0.038118754 -0.027252857 -0.030717978 0.0023347472 -0.007711097 -0.03589171 0.012343287 0.009750897
-0.021540081 0.023263397 -0.035505123 0.0015590177 -0.031359322 -0.018320272 0.021865672 0.017684272
-0.009580536 -0.010496799 -0.013232771 -0.008012366 -0.03866577 0.025736839 0.012031897 0.0093225045
0.0072469907 -0.030881526 -0.031209001 -0.030153446 0.02614824 0.012003627 -0.012218555 0.023206
-0.023119256 -0.00866079 -0.031613603 -0.010581403 -0.0042980677 -0.009521544 0.023498924 0.011698298
0.022872362 -0.01966563 -0.0005084427 0.01149319 8.140359e-05 -0.023423167 -0.038189605 0.005241567
