models/simple_financial_lora/checkpoint-135/adapter_model.safetensors (safetensors, 592848 bytes, 24 tensors)

base_model.model.transformer.h.0.attn.c_attn.lora_A.weight f4 [4, 768]
00000000: 0aa9 953c 1af5 373c 0be2 bf3c beb4 22bd
00000010: 958c 2c3c 1bca 19ba 74ef 033d d2f1 8d3b
00000020: 2a79 26b9 5cab 07bc 738f a0bc f703 abbc
00000030: b68b 023d 0b20 363b 15de 05bd a987 943c
00000040: f1a7 de3c 5ea5 25bc cc9d 0b3d d3c5 38bb
00000050: 36a4 82bc 7fa8 003c e6d7 3bbc aaa1 febb
00000060: 8f12 aa3a 090b b83c 2f6a a1bc 8fec e13c
00000070: 91ee 7e3c 2d87 1dbb 5504 cbbc cd86 003d
00000080: fa71 38bc 28c5 bc3b 641a 1cbd 6c02 6fbc
00000090: 4e3c 363c 5cae d5bc acda 2f3c 0e48 853c
000000a0: 6ea6 aa3c b1cb 883c 37cc 9f3c 3364 183c
000000b0: 9af1 cf3b 7ffd 8ebb 3ebc 1abb 3df2 be3c
000000c0: 7d65 1c38 2aca d4bc f82b ecba ecda 003d
000000d0: 382a 003c aafe b2ba a9f6 1ebc 875b 233d
000000e0: fd2f f6bb 18ca b33c 7870 b8bb cc0b b03b
000000f0: d9e6 ddbc ffa9 183d a8e1 19bd 0320 18bc
00000100: 3b43 d03c 95b5 f4bb bf4a 0d3d b3eb 48bc
00000110: cf5b a53c f047 27bb a427 2b38 bf1a 4bbb
00000120: 9aaa 2dbc 5dcd 5ebc 273d 863c 973c ccbc
00000130: a2cf 14bc c067 c53c cab8 eebb 9fca 853c
00000140: ca06 833c b99e c33c 8e32 87bc 264a fc3c
00000150: c694 d9bc ab3f b93c 48b7 f2ba b881 353c
00000160: 2ca8 1d3c c2b3 1a3d 5643 e33c 07c2 1dba
00000170: 73b2 4bba 5344 f23c 939c 00bd f3e7 92bc
00000180: 0dc1 f8bc 7910 963c ce11 803c 23c3 bfbc
00000190: a2a3 afbb 2658 0cbd 66e2 dcbc 98a2 52ba
000001a0: 5024 8a3c 438b fa3c 7629 54bc 28fc 9ebc
000001b0: 3dd6 cbbb 3350 e23b 0e50 3f3b eea4 91bc
000001c0: 4516 26bc 5993 6f3c 49e3 323c 0436 aabb
000001d0: cf35 a23b 5f2f a73b e5ff d53c 1f93 b63c
000001e0: e5a4 21bc 34ed 0bbd 2119 e2b9 357c 0dbb
000001f0: decd 063b 99f2 1dbc 7b8a e53c cea5 50bc
00000200: 8c50 39bc ada3 aebc ab3f 8f3c d50e af3a
00000210: a536 aabc f774 c7bc a397 c83c 9082 033d
00000220: b0cf 24bc 6150 e7bc 8ffc 05bc 2817 f33c
00000230: f293 933c ca1c ec3c 0429 10bd 0488 8b3c
00000240: 90a1 74bc 268b 033d 2d78 b3ba d22f f1ba
00000250: 80c7 debc 9b56 ba3c a40d 97bc a2a7 ab3a
00000260: 7747 2c3c d99b a7ba 299e 81bc ac00 ea3c
00000270: 6382 473b aeb4 dab8 cf1a 0bbd 7115 aa3c
00000280: 6cdb 963c 3fed a1bc 5d11 e33c e943 39bc
00000290: dcc9 043d 8d03 1abd f90e 0ebd b9c2 1bbc
000002a0: e1b7 08bd ab9e d63c 4509 183d f81d f43c
000002b0: eb8f ffbc e477 fabc 6692 07bd 8a10 0a3d
000002c0: debc d3bc 41fe 8d3c f310 a5bc 5d38 df3c
000002d0: 20b0 10bd ae2d cabb 7d1b ffbc ce37 103c
000002e0: b7bc 50bc 5270 533b 95c3 5ebc fd5b 25bc
000002f0: 45f8 633c c9a7 c7ba a0d0 403c 9a94 b13b
00000300: 136f 05bd 9de0 cc3b 7044 933c 2949 03bd
00000310: 5976 c2bc f739 533c b4b5 6cbc b83a f4bc
00000320: 0151 0ebd 2d16 acbc 1c8f 06bd 2f33 38bb
00000330: 399a b83c e586 85bb a27e 0a3c 0bd4 f3bc
00000340: 9630 a9bb 3e06 973a 1ec7 a0bb 55c1 093d
00000350: 4abe 8fbc 452c 9abc e4bc 74ba 5c50 3f3a
00000360: fc86 54bb 2b70 3ebc 0a46 b3bc 1e1a 38bb
00000370: 7f6e 5ebc 1c2d 443c 5e56 953c aa16 fcbb
00000380: 1d1e 77bc d420 f3bc 4a59 0d3c 3b23 c33c
00000390: 0d32 473a 89c4 0b3d 6158 ae3c 1184 38bb
000003a0: f1a7 c93b 2328 9a3c 1772 e13c 2445 03bd
000003b0: 4bca aabc f9d0 f03c 8405 bf3c b270 773c
000003c0: 5b4b 823c f3a7 d1bb 204e 69b9 bbe6 f73c
000003d0: 9137 a0bc 5f4c c8bc c770 14bc 9b0b e1bc
000003e0: 137e f6bc e386 8cbc 5e77 f03c 6096 c2bc
000003f0: 0abd 1c3c cf42 eb3b 910d cf3c 9e3d 0abd
0.01826908 0.01122787 0.023423215 -0.03972315 0.010531564 -0.0005866603 0.032210782 0.0043318057
-0.00015876131 -0.008280601 -0.019599652 -0.020875914 0.03187152 0.0027790095 -0.032682497 0.018131094
0.02717969 -0.010110227 0.034086034 -0.0028194084 -0.015947443 0.007852673 -0.011465048 -0.0077707367
0.0012975502 0.0224662 -0.019703953 0.02757862 0.015559808 -0.002403687 -0.02478234 0.031378556
-0.011257643 0.0057608075 -0.038111106 -0.01458798 0.011122776 -0.026084118 0.010733288 0.01626971
0.020831313 0.01669869 0.019506557 0.009301233 0.00634594 -0.004363715 -0.0023610736 0.023308868
3.7287817e-05 -0.025975306 -0.0018018475 0.03145878 0.007822566 -0.0013656218 -0.009702363 0.03988221
-0.007513045 0.021946952 -0.0056286417 0.0053725 -0.027087616 0.037271496 -0.03756872 -0.009284976
0.025422683 -0.0074679353 0.03449511 -0.012263226 0.02018538 -0.0025525056 4.0806495e-05 -0.0030991284
-0.010599757 -0.013598767 0.016386582 -0.024931235 -0.009082707 0.024097323 -0.007285212 0.016331969
0.015994448 0.023879396 -0.016503599 0.030797075 -0.026560199 0.022613367 -0.0018517757 0.011078291
0.009622615 0.037769087 0.02774207 -0.0006017987 -0.00077704265 0.029573595 -0.03139932 -0.017932868
-0.030365491 0.018318402 0.01563349 -0.023408478 -0.0053600827 -0.034263752 -0.026963424 -0.00080350926
0.016863018 0.030583983 -0.012949338 -0.019407347 -0.0062206076 0.006906533 0.0029192003 -0.01777884
-0.010137145 0.014622533 0.010918447 -0.0051944274 0.004950262 0.0051020826 0.026122997 0.02228695
-0.009865974 -0.03416176 -0.00043124802 -0.0021588926 0.0020569484 -0.009640359 0.028020134 -0.012734843
-0.011310708 -0.021318281 0.017486414 0.0013355861 -0.02077801 -0.024347765 0.024486369 0.032106936
-0.010059282 -0.02823657 -0.00817789 0.029674128 0.018014882 0.028822321 -0.035195366 0.01703263
-0.014931098 0.032115124 -0.0013692431 -0.0018401092 -0.027194738 0.022746375 -0.018439122 0.0013096223
0.010515085 -0.0012787535 -0.015822487 0.028564773 0.0030442707 -0.00010428704 -0.033961114 0.020762177
0.018415175 -0.019766448 0.02771824 -0.011307695 0.03241907 -0.037601043 -0.034682248 -0.009506875
-0.033378486 0.026198706 0.037118215 0.029799446 -0.031196555 -0.030574746 -0.0330986 0.03370718
-0.025846895 0.017333152 -0.020149684 0.027248556 -0.035324216 -0.006169996 -0.031141037 0.008802367
-0.012740306 0.0032262993 -0.013596435 -0.0100927325 0.013914173 -0.0015232499 0.01176849 0.005419326
-0.03257663 0.006252362 0.01797697 -0.032052193 -0.023738073 0.012892238 -0.014447618 -0.029813156
-0.03474522 -0.021006668 -0.032851323 -0.002810668 0.022534477 -0.0040749186 0.008453043 -0.029764196
-0.0051632626 0.0011522246 -0.004906549 0.03363164 -0.017546792 -0.018819937 -0.0009336008 0.0007298046
-0.003242909 -0.011623423 -0.021883983 -0.002809174 -0.013576149 0.011973646 0.01822966 -0.0076931315
-0.015082863 -0.02967874 0.008627245 0.02382051 0.00075987057 0.034122977 0.021282377 -0.002815489
0.0061540534 0.018817967 0.027520223 -0.03204836 -0.020848414 0.02939652 0.02331806 0.015102552
0.015905073 -0.006398195 -0.00022249715 0.030261388 -0.019557746 -0.02445048 -0.009060091 -0.027471354
-0.030089414 -0.017154163 0.029353794 -0.023753345 0.009566555 0.007179595 0.025275024 -0.03375017

base_model.model.transformer.h.0.attn.c_attn.lora_B.weight f4 [2304, 4]
00000000: 3e81 b7ba 9d61 903a 966f 4dba 17bd 563a
00000010: 9d88 aaba c528 5b39 5e02 973a 97f5 fd3a
00000020: 51b6 853a 0888 1fba b082 4639 ca13 02bb
00000030: 82c2 8ab8 4a47 bbba f467 7a3a 8de0 3139
00000040: 7412 2d3a f888 02bb c081 143b 588f 29ba
00000050: a327 8239 857e d4ba 60db fa3a b675 18b9
00000060: c7ea cbb9 3ade 373a b638 61b9 bc0f 9a3a
00000070: f6ea a1ba 2ce9 3a3a 5e5f 27b7 0cdb 0b3b
00000080: 4ca2 503a 5024 e5b9 766f 8f3a 1953 cdba
00000090: dcb3 623a 8eb4 60b9 743f 7c39 de8d 8bba
000000a0: 2a1f 70ba 3564 2538 1429 e1b9 6b7d b83a
000000b0: a99f 7b3a 9638 f339 c7fd 123a f470 a0ba
000000c0: 3d9c 423a 9aa9 99b9 9e4f a13a 0bf1 86ba
000000d0: ef91 073a 06d6 333a 3f1e 6bba 3325 2bba
000000e0: 45fd 1bba 6f76 1eba d3be 3f3a 46fc 113b
000000f0: 99a3 09ba 65e6 76ba 57cd 3739 23a7 253a
00000100: 1e77 8bba acb2 2139 8792 eb39 459e e43a
00000110: 72f2 82ba dba2 e1b9 a0c9 213a 24c1 ad3a
00000120: a889 75b9 7116 05bb eeb2 193b 01e5 273a
00000130: 0f0c d639 848a 93ba 906d a33a 34b6 33ba
00000140: 5979 a239 0803 a03a b5d7 caba 03d7 3cba
00000150: f115 77b9 1685 d13a fa0a eeba ab32 2439
00000160: 7139 89ba b4e4 b7ba 9316 e53a fadd 043b
00000170: d1e4 b038 394c b13a 4129 c8ba 3575 acba
00000180: e3fe 2639 b833 563a 8a38 6339 3f38 a93a
00000190: dfc2 64ba 72a2 80b9 6f61 9f39 1b93 de3a
000001a0: cf62 a6ba 9fe4 8aba 71ae a73a ba6a 253b
000001b0: 1045 1db9 c0dd a9ba 7b40 d83a eff6 a43a
000001c0: 65cb 58ba 1260 9fba 1561 cc3a 25ae ae3a
000001d0: 3337 52ba 1b5c b9ba 4e53 0a3b d637 d73a
000001e0: d7f5 64ba 836e 0d3b bced dcba c2d7 c2b9
000001f0: 6b5e ec38 5002 bfba aea5 9b3a a40e 33b9
00000200: ddf7 94ba ca22 7e3a 52cd a5ba f258 c4b9
00000210: c194 803a 1672 dcba ec29 f83a 5850 58ba
00000220: 4be1 a13a 6d68 abba f1db 9c3a 22b6 b4ba
00000230: 9bec 9539 30a6 67b8 8f84 f1b8 2ee0 83ba
00000240: 0119 933a b7cc 27ba b7ff ed39 f508 82ba
00000250: dd53 b9b9 41fe 2a3a 9bd0 b5ba 2981 9b3a
00000260: d69c 3e3a a44a 273a 7b79 9039 6cf5 22ba
00000270: 3568 85ba 249c d9b9 efb8 e03a bd5b fe3a
00000280: 75fe 7c39 167e cbba 9dcf 4a3a e670 08b9
00000290: 8fb6 e4ba 4d74 ee39 7d1c 023a d3d9 153b
000002a0: cdcd 6bba 6bb0 a4b9 039d 9739 ce6c d63a
000002b0: 1163 713a 8fcc f73a ab3b 06bb 2972 bdba
000002c0: 3861 523a 5845 4e3a 769a 9eba f504 c7ba
000002d0: b439 cfba 2fae b33a 2ee9 1f38 1e07 173b
000002e0: 2b50 72ba 28c9 ddb9 ab56 d33a 8cbb d93a
000002f0: 34fc 8eba e4c9 043b afbe e4ba 2c38 003a
00000300: ec38 733a c89d ce39 2f33 b0ba 13c9 07ba
00000310: dd7e c839 4fac b3ba a253 ca3a 8f34 8839
00000320: 8123 03ba 73fd ce3a 8eaf d2ba 3c43 073a
00000330: 5b72 a6b8 d8a4 0fba ed98 3539 8a95 3fb9
00000340: c485 903a 422b 19b7 bf5c 5aba ed77 06bb
00000350: 7234 92b9 15ff 1f3b 83b9 1abb f93e 06ba
00000360: f00f 59ba 9794 bfba cd6a 093b a026 ef3a
00000370: e7ae 793a 1d38 95ba 1b1e 1d3a 4cfa 49ba
00000380: d14f a4ba 5dd1 d93a 505e 26ba 6216 123b
00000390: 1ace bab9 bc8d 38ba c3f2 903a cb5a b63a
000003a0: e7d6 d93a 0b38 30b8 1bc7 46ba ea35 17bb
000003b0: e8b3 40ba 1d59 3439 41d1 973a 0fa4 053a
000003c0: 9c3f a9ba 518e d9b9 e8c2 9839 aa73 eb3a
000003d0: 372b 36ba 5934 9139 cc8c 4ab9 d626 db3a
000003e0: af6e 4d39 8573 d93a 56d5 ddba 4af2 afba
000003f0: defe f539 d599 dbba 42c3 a03a aadf 05ba
-0.0014000309 0.0011015419 -0.0007836757 0.0008191629 -0.0013010685 0.00020900655 0.0011521091 0.001937556
0.0010201429 -0.0006085639 0.00018931436 -0.001984822 -6.616583e-05 -0.0014288214 0.00095522334 0.00016963687
0.0006602176 -0.0019918066 0.0022660345 -0.0006468198 0.00024825064 -0.0016212022 0.0019138865 -0.000145397
-0.000388941 0.00070140103 -0.00021478799 0.0011753957 -0.0012353349 0.0007130082 -9.97618e-06 0.002134028
0.00079587544 -0.0004370534 0.0010943252 -0.0015665024 0.0008648017 -0.00021429567 0.00024056231 -0.0010647138
-0.0009159917 3.943239e-05 -0.0004294595 0.0014075463 0.00095986814 0.00046390732 0.0005607274 -0.0012240694
0.0007423794 -0.00029308797 0.0012307053 -0.0010295225 0.0005171587 0.00068602 -0.00089690456 -0.00065286754
-0.0005950521 -0.00060448697 0.0007314507 0.002227561 -0.0005250513 -0.0009418487 0.00017528735 0.0006319156
-0.0010640358 0.00015420717 0.00044931864 0.0017442188 -0.0009990467 -0.0004303668 0.0006171707 0.0013256413
-0.00023416302 -0.0020307566 0.0023452598 0.00064046687 0.00040826245 -0.0011256491 0.0012468565 -0.00068554585
0.0003098946 0.0012207935 -0.0015475663 -0.000720367 -0.0002356393 0.0015985097 -0.001816123 0.00015659134
-0.0010469389 -0.0014029951 0.0017478041 0.002027391 8.434954e-05 0.0013526744 -0.0015271084 -0.0013157489
0.00015925946 0.0008171159 0.0002166947 0.0012910439 -0.0008726548 -0.00024535094 0.00030399437 0.0016981097
-0.0012694242 -0.0010596699 0.0012793076 0.0025240616 -0.00014998415 -0.0012959763 0.0016498709 0.0012585799
-0.0008270054 -0.0012159368 0.0015592898 0.0013327046 -0.00080190896 -0.001414183 0.0021106782 0.0016419839
-0.0008734143 0.0021580763 -0.0016855518 -0.00037163316 0.00011270944 -0.0014572833 0.0011874938 -0.00017076224
-0.0011365373 0.0009694515 -0.0012649691 -0.00037450303 0.0009809957 -0.0016818668 0.0018933392 -0.0008251718
0.0012350468 -0.0013077386 0.0011967403 -0.001378719 0.0002859578 -5.5229466e-05 -0.000115164665 -0.0010061318
0.0011222662 -0.00064010493 0.00045394685 -0.0009920882 -0.00035348433 0.0006522872 -0.0013871373 0.0011864054
0.0007271295 0.0006381667 0.0002755633 -0.000621638 -0.0010178151 -0.000415058 0.0017144958 0.0019406002
0.00024127385 -0.0015525247 0.0007736625 -0.00013012029 -0.0017449426 0.00045481548 0.00049633515 0.002286543
-0.0008995205 -0.0003141196 0.00028917947 0.0016359331 0.00092081825 0.0018905568 -0.0020482342 -0.0014453578
0.0008025351 0.00078686094 -0.0012100476 -0.0015183972 -0.0015810044 0.0013708527 3.812572e-05 0.0023045014
-0.00092435133 -0.00042302278 0.0016123852 0.001661168 -0.0010908903 0.0020261938 -0.0017451848 0.0004891183
0.00092781964 0.00039408938 -0.0013442988 -0.00051798037 0.00038241493 -0.0013707968 0.0015436301 0.000259791
-0.0005002544 0.0015792086 -0.0016074048 0.000515986 -7.936797e-05 -0.0005479581 0.00017318474 -0.00018270887
0.0011026193 -9.129582e-06 -0.000832986 -0.0020518259 -0.00027886365 0.0024413515 -0.0023609109 -0.0005121078
-0.0008280268 -0.0014616427 0.00209682 0.0018245764 0.00095246587 -0.0011384521 0.0005993561 -0.00077048386
-0.0012535994 0.0016618181 -0.0006346451 0.0022291173 -0.00035630242 -0.0007040163 0.0011058677 0.0013912556
0.0016619832 -4.2013864e-05 -0.00075827696 -0.0023072907 -0.0007351027 0.00017199335 0.0011582748 0.0005097994
-0.0012912634 -0.000414955 0.00029136916 0.0017963548 -0.00069491885 0.00027695557 -0.00019316672 0.0016719948
0.00019591556 0.0016590214 -0.0016924541 -0.0013423648 0.00046919932 -0.001675422 0.0012265223 -0.0005106876

base_model.model.transformer.h.1.attn.c_attn.lora_A.weight f4 [4, 768]
00000000: 744e e7bb 96e1 d5bc 2a31 013d 6586 fa3c
00000010: d033 5c3b d357 da3c ef19 833c cec6 0ebd
00000020: 1828 073b 0012 b03c 3eec 3d3c 1374 5e3c
00000030: 6dc6 babb b128 163c 8778 c4bc c187 00bd
00000040: 8f11 153d e39a d73b bbcd 19bc a47b ef3c
00000050: 1165 833c 10a6 12bc daa8 9ebc 2f9c 2d3c
00000060: 2dbe a63c 842c efbc 1669 debc dcca 0ebc
00000070: c655 5a3a 2981 a4bc 801e 9fba 0402 3d3b
00000080: d7f7 023d 3f43 663c 81c1 753c 09f3 16bd
00000090: a3b3 95bc 14d6 02bd 7c44 4a3c 28fa e8bc
000000a0: a3ca 4e3c 0430 19bc a875 b0bc cc14 343c
000000b0: 2170 4b3b 35a6 083d 9a12 103d 8110 a3bb
000000c0: 6c00 9b3c 66fc 053d b8d9 0bbd d6a1 823b
000000d0: 57d8 fd3c 23ee 94bc 0eef d4bc e23b 8fbc
000000e0: e23e 383c 765c 353c 1656 b43c c09d 8abc
000000f0: 3fa6 12bd d0cd a3bc 34a5 c0bc d1d4 e73a
00000100: 6c20 833c 96dc 09bd 3560 c4bc a14a a4bc
00000110: 6cfd d4bc c346 413c 7804 cbbc 6f2f b3bc
00000120: fb93 b9bc 9695 0dbc c219 a43c ec58 943c
00000130: 3cdb 883c a3b7 043c c2f0 c43c 76ee 123d
00000140: a28f f8bc d430 2f3c ed6a 883c 4f91 4f3b
00000150: c053 ae3c 7aad cb3c 3acb f33c cbd8 cebc
00000160: 6668 0d3d ac6b 183d 3aac a1bb eb45 063d
00000170: 2855 72bc ef76 0dbd d5ad e03c 0099 fbbc
00000180: 2572 a23c 1d4b fbbc 734d a4bc 4337 b8bc
00000190: 10f1 46bc 2389 b6bc 994f f6bc a8fe 8b3c
000001a0: cc85 103d 1816 8d3c aeb4 703c 327d 14bd
000001b0: 7a8e 403b c5ea 143d 8506 333c 0786 ea3c
000001c0: 1460 94bc 633d edbc c844 ce3c 5804 ea39
000001d0: 8886 a7bc af6c 893c f963 30bc dfb5 04bd
000001e0: 1c05 f8bc b76d dbbc 53d5 eebb 87fd 45bb
000001f0: 01a6 453b e57f b1bc 5402 efbc 93b8 953c
00000200: f5b8 0c3c 6f59 c43c 151f 653a 0d4a 183c
00000210: 9939 083d 8920 1a3c 1742 d03c d968 bcbc
00000220: 5b09 e03c 6290 0a3c 10b6 e6bc dee2 c3bb
00000230: 299c a7bc 217f 973c 6612 1c3d 68fb 733c
00000240: 6be7 95bc 4abb 2a3a 32e5 69bb 04d8 06bd
00000250: 0ff9 433b 655a f03c b981 cf3c 3928 a8bb
00000260: 2fc9 da3c 8042 fb3c 9f38 e33c b155 e63c
00000270: e3b2 6f3c e542 a3bc 0869 0f3d 0c62 1cbc
00000280: c972 e6bb 3dbe 3a3c 7557 dbbc d0c3 7abc
00000290: 5b2b d43c dd14 333b 8380 a03c 231a 143d
000002a0: 0485 86bc cb3a 5cbc 782f 723c 4c19 1abc
000002b0: 031f 023d 6c58 bfbc cd95 8a3c 908a 75bc
000002c0: c42f 43bc 452d 39bb 8859 4b3c 83cf 823c
000002d0: 935a 49bc 0e09 3b3c 54b7 1e3c 2671 743c
000002e0: f603 b03c 8034 08bd 5df3 c737 e751 e1bb
000002f0: 73d3 06bd f6e8 773c b306 a83c 70f1 1f3d
00000300: 86b3 24bb 0218 c73c a999 c8bc a5d1 ceba
00000310: 27c0 15bd 182d ea3a 97b4 cdbc 5d65 873c
00000320: 2677 033d df2a f4bb 42ec 11bd c560 9b3a
00000330: 4d86 f33b f6ba 46ba 6d08 b7bc c7b5 22bc
00000340: 50b7 0a3d 62a6 68bc deb7 e5bc 3e99 f03c
00000350: 5ad2 1a3d 54a9 e23c a27a 07bc 90ed 82bc
00000360: cf33 06bd f144 e3bc 8b80 c4bc f5b1 c7bc
00000370: 467c d63b e114 d0bc 79cb 1b3b 65ce 0f3d
00000380: 028a 093d 6537 023c e761 9bbc 5830 143c
00000390: 66c2 0bbd 3661 6e3c cd76 5bbc 3bc6 a1bc
000003a0: df08 10bd c2c4 afbc 7c98 c7bc 51b9 acbc
000003b0: 5857 26bb 11e2 5b3c 512d 223c a01d 393c
000003c0: c939 aabc a75d 893c c0ac c6bc ea96 7dbc
000003d0: 4067 36bb 50e3 23bb 001e c7bc b1c4 febc
000003e0: ef69 1bbc 2050 a83c 3531 a2bc aa79 e0bc
000003f0: 9811 51bc 5d25 0f3d f47d ad3c 5e24 7cbc
-0.007058913 -0.026108544 0.031541027 0.030581662 0.0033600219 0.026653206 0.016003577 -0.034857564
0.0020623263 0.021492958 0.011591969 0.013577479 -0.0056999237 0.009164975 -0.023983253 -0.031379465
0.0363937 0.006579743 -0.009387429 0.029233761 0.016039403 -0.008950725 -0.019367624 0.010596319
0.020354355 -0.029196031 -0.027149718 -0.008715358 0.0008328821 -0.02008112 -0.0012139827 0.0028840313
0.03197464 0.014054119 0.014999748 -0.03685287 -0.018274134 -0.031942442 0.0123454295 -0.028439596
0.012621555 -0.009349827 -0.021540478 0.0109912865 0.0031042176 0.033361632 0.03517399 -0.0049763327
0.0189211 0.03271141 -0.03414318 0.0039865775 0.030986948 -0.018179959 -0.025992896 -0.017484609
0.011245461 0.011069408 0.022013705 -0.016920924 -0.035803076 -0.0199956 -0.023516275 0.0017687326
0.01600667 -0.033657633 -0.023971656 -0.020055117 -0.025999747 0.011796656 -0.024782404 -0.021873204
-0.02265357 -0.008641621 0.020031814 0.018108808 0.016706102 0.008100423 0.024040584 0.035871945
-0.030341927 0.010692794 0.016652549 0.0031672304 0.02128017 0.024862994 0.029759992 -0.02524986
0.03452339 0.03721206 -0.004933861 0.032781523 -0.014790811 -0.034537252 0.02742664 -0.030712605
0.019829819 -0.030675465 -0.020056462 -0.022487288 -0.012142435 -0.022282189 -0.030067252 0.017089203
0.03528385 0.01722245 0.014691515 -0.036252208 0.0029381798 0.036356706 0.010926847 0.028628362
-0.01811222 -0.028959936 0.025179282 0.00044635194 -0.020449892 0.016775457 -0.010766023 -0.03240001
-0.030275874 -0.026785715 -0.007288614 -0.0030210929 0.003015876 -0.02166743 -0.029175915 0.018276488
0.008589019 0.023968427 0.00087402883 0.009294999 0.033258054 0.009407171 0.02542214 -0.022999214
0.027348211 0.008457275 -0.028162986 -0.0059779724 -0.020460205 0.018493237 0.038103484 0.014891483
-0.018298825 0.00065128936 -0.003568959 -0.032920852 0.002990309 0.029339978 0.025330411 -0.005131748
0.02670726 0.030671358 0.02773696 0.028117033 0.014630052 -0.019929359 0.035012275 -0.009544861
-0.0070327264 0.011397895 -0.026775101 -0.015305474 0.02589958 0.0027325668 0.01959253 0.03615774
-0.016420849 -0.013441752 0.014781825 -0.009405445 0.031767856 -0.023357593 0.016917134 -0.014986649
-0.011913244 -0.0028255743 0.012411483 0.01596809 -0.012289661 0.011415733 0.0096872635 0.014919555
0.021486264 -0.033253193 2.3835973e-05 -0.0068762186 -0.032916497 0.015131226 0.020511007 0.039048612
-0.0025131418 0.02430344 -0.024487333 -0.0015779032 -0.036560204 0.0017866222 -0.025110526 0.016527826
0.03209605 -0.0074513997 -0.035625704 0.0011854401 0.0074317814 -0.000758096 -0.022342885 -0.009931034
0.033866227 -0.014199825 -0.028041776 0.029369947 0.037798263 0.027668633 -0.008268984 -0.01598242
-0.032764252 -0.027742835 -0.023987075 -0.024376849 0.0065455763 -0.02540058 0.0023772402 0.035108943
0.03357888 0.007947777 -0.018967582 0.009044729 -0.03412094 0.014549544 -0.0133950235 -0.019747844
-0.03516471 -0.021456126 -0.024364702 -0.02108446 -0.002538165 0.013420598 0.0098985 0.011298567
-0.020779507 0.01676829 -0.024252295 -0.015477875 -0.0027832538 -0.0025007315 -0.024306297 -0.03109965
-0.009485706 0.02054602 -0.019798854 -0.027401764 -0.012760542 0.03494774 0.021178223 -0.01538953

base_model.model.transformer.h.1.attn.c_attn.lora_B.weight f4 [2304, 4]
00000000: c9da 7239 04db 1cba aba6 05ba d4ef 16b9
00000010: 572e 073a b704 04ba a164 b138 d1f2 c8b9
00000020: 33da bab9 3bea e239 387b 853a bae3 da39
00000030: d539 18ba 87b8 543a 2154 383a ec48 c439
00000040: a5b8 a139 7522 28ba 7e37 60b9 6bae bdb9
00000050: 48ce 033a 6ed2 ddb9 9a48 76b9 4079 7bba
00000060: 5ff6 5aba beda 5d3a 7ba1 8d39 0bd8 663a
00000070: a7b5 933a ccd4 8eba 306c 20ba 6572 1eba
00000080: 2a4f 513a 5a82 8cba b539 a1ba 5754 3dba
00000090: d07a 3438 db1a 7b39 23c9 0439 1b24 dcb9
000000a0: 9f1c eab9 e0a8 9e39 d98d 133a cd0c d939
000000b0: 3b2c 9739 2abc ac39 ec8f 303a a667 a239
000000c0: 3d88 ffb7 13eb 0aba aff8 4cb9 e636 81ba
000000d0: 4f39 9c39 d35e 86ba ad37 2fba f313 fab9
000000e0: 53e4 573a 7621 5cba 1920 84ba 1fdf a1b9
000000f0: cbe7 8e3a 941d 5fba 078f 22ba 29b3 33ba
00000100: bea0 9439 3557 4fba 9f8d db39 7c29 ac39
00000110: 8b0f dbb9 afed 073a 7d80 503a a2ec 053a
00000120: 1d1f a639 6ef7 a8b9 c3f8 ae39 72be 5eba
00000130: fe34 0739 c749 26ba 604a 223a 3ce4 6a39
00000140: 51d9 0cba 4995 d4b8 f76c 23b9 f6aa 9737
00000150: ba2c 29ba ea83 923a 151b c23a d6d6 913a
00000160: ba4e b43a 20f9 eeb9 6ef1 05ba 9122 b1b9
00000170: a0f9 d4b9 53b5 b6b9 0f26 f239 4655 8438
00000180: b8a7 8b39 ded5 c4b7 01c8 09b9 48df b3b9
00000190: f31a 25ba 8267 25b9 7be4 1a3a 39a4 3e3a
000001a0: 00b6 8d39 e311 b537 f211 353a 155d 8b37
000001b0: 899b 76ba dd3e 073a 7dbc f039 a86d afb9
000001c0: 61f7 d438 775b 7cb8 35d1 a736 9a31 b6b9
000001d0: e1a4 a1b7 27b5 49b8 6a95 8938 ec08 0639
000001e0: b164 73b9 b982 18b8 73d3 aeb9 e4a0 10ba
000001f0: 4fc5 bab9 00b2 1239 48c8 dcb8 3384 cd39
00000200: e1d5 a239 d6df b1b9 9ddb 0cba 990d 1bba
00000210: 9ef4 e9b9 da26 ee39 f7dd 7439 a378 643a
00000220: 73d0 c63a d41f 9bba 14d0 87ba 6fd1 b0ba
00000230: 132b 203a 7c95 83b9 6d46 1dba 714b b9b9
00000240: 3102 a0b9 b47f dbb9 ca67 8939 a7a3 013a
00000250: 23e2 9a3a 3bac 9cba 845b aaba f3ee 7cba
00000260: e57b 2aba 0aba 0c3a 9b02 013a 8515 173a
00000270: fdae 4138 ab51 4439 7f87 5f3a e760 9d38
00000280: 5403 35b9 52bb d638 f2c9 4f38 0ec2 a5b9
00000290: ff88 81b6 9009 1ab9 0a4b 34ba d044 4c39
000002a0: 8cc7 3339 81fc 18b9 77d2 5bb8 23a6 cab9
000002b0: 1dbe 22ba 914a ac39 be02 923a f604 dc39
000002c0: ad74 0eba 4746 ac3a 13ce b939 2954 b93a
000002d0: d896 2739 366f 4eba 8c1f 59ba c7ca 96b9
000002e0: 766e f238 ec5a 1f3a 54b2 5f39 d650 3339
000002f0: f397 2eb7 0692 e639 6717 1b3a a454 ab39
00000300: e2d5 4139 7bcf 06ba 8cfa 12b8 7104 09ba
00000310: 7bfc 6f3a f0d0 7bba 6757 1aba 3b60 f5b8
00000320: d6bd 05ba b108 1b39 927e f6b8 9f9d 59b9
00000330: 25ef c639 5334 ccb9 15e9 40ba d49d e9b8
00000340: 3488 dbb7 724d 37ba 65fd 3139 159c 39b9
00000350: a267 623a a468 beb9 b72f 31ba 1460 f1b9
00000360: 4363 e039 36c3 06ba f994 79ba 50e1 9db9
00000370: b793 d2b9 607f 8ab4 ff41 d138 6fd9 c0b9
00000380: dc68 183a 0757 d7b9 8878 9fba f4ee bdb9
00000390: c85f 2838 0fa2 4ab9 5374 bc38 741d c039
000003a0: a1e2 9c39 abb1 fcb9 4f72 f337 cba3 9bb8
000003b0: 3669 6dba 4caa cc39 b3fb a739 b1a4 c7b9
000003c0: 1429 15b9 e2b8 34ba e285 54ba dddc 2839
000003d0: f898 c5b9 3c93 913a 222a 6a3a 69ea 2d3a
000003e0: ddce 4c3a 5301 a7b9 beab f5b9 692a a7ba
000003f0: 3f90 c9b9 d2d5 d739 dba9 8f37 1a87 8c39
0.00023160422 -0.00059835636 -0.0005098383 -0.00014394458 0.00051567465 -0.0005036103 8.458761e-05 -0.00038327885
-0.00035639256 0.00043280594 0.0010183817 0.0004174987 -0.00058069575 0.0008114655 0.0007031579 0.00037438364
0.00030845884 -0.0006413826 -0.00021382977 -0.0003617884 0.0005027992 -0.00042309187 -0.00023487434 -0.0009592958
-0.0008352752 0.0008463076 0.00027013928 0.00088059966 0.0011269347 -0.0010897159 -0.0006119637 -0.0006044268
0.00079845136 -0.001072 -0.0012300523 -0.00072223454 4.3029722e-05 0.0002394723 0.0001266343 -0.0004198857
-0.00044653282 0.0003026193 0.0005628742 0.00041399003 0.0002883392 0.0003294659 0.0006735313 0.00030976272
-3.046181e-05 -0.0005299311 -0.00019547598 -0.000985828 0.00029797337 -0.0010251648 -0.00066840166 -0.0004769858
0.0008235622 -0.000839732 -0.0010080367 -0.0003087455 0.001090282 -0.00085111824 -0.00062011223 -0.0006855005
0.00028348522 -0.0007909418 0.0004187645 0.00032837305 -0.00041782515 0.0005185259 0.00079537166 0.00051088084
0.00031685169 -0.00032227807 0.00033373208 -0.00084970065 0.00012894344 -0.0006343391 0.00061908923 0.00022401003
-0.0005372959 -0.00010136754 -0.00015585484 1.8080213e-05 -0.0006453503 0.001117823 0.0014809096 0.0011126648
0.0013756373 -0.0004558051 -0.0005109523 -0.00033785825 -0.00040621776 -0.00034848842 0.00046186193 6.310134e-05
0.00026637106 -2.346461e-05 -0.00013139845 -0.00034307898 -0.0006298266 -0.00015774186 0.000590868 0.0007272396
0.00027029216 2.158521e-05 0.0006907276 1.6613436e-05 -0.0009407332 0.00051592087 0.00045916802 -0.000334603
0.00010155026 -6.0166665e-05 5.0013427e-06 -0.000347507 -1.9269473e-05 -4.8090846e-05 6.5604996e-05 0.0001278256
-0.00023211796 -3.636137e-05 -0.00033345408 -0.00055171386 -0.0003562369 0.00013989955 -0.00010527723 0.00039199143
0.000310584 -0.00033926842 -0.0005373301 -0.0005914807 -0.00044623477 0.00045423844 0.00023352342 0.0008715486
0.0015168324 -0.0011835047 -0.0010361695 -0.001349015 0.0006109934 -0.00025097642 -0.0005999569 -0.00035342158
-0.0003051921 -0.0004186608 0.00026208005 0.00049453456 0.0011816662 -0.0011953184 -0.0012997244 -0.00096486433
-0.0006503447 0.0005368298 0.0004921348 0.00057633995 4.6177756e-05 0.0001872244 0.00085269654 7.504393e-05
-0.00017262745 0.00010239206 4.9540722e-05 -0.00031615834 -3.860448e-06 -0.00014690147 -0.0006877637 0.0001948059
0.00017145107 -0.00014589915 -5.240968e-05 -0.00038652224 -0.00062081387 0.00032861953 0.0011139733 0.00041965366
-0.0005434256 0.0013143503 0.00035439487 0.0014139462 0.00015982555 -0.0007874848 -0.0008282594 -0.0002876131
0.00011560034 0.0006078917 0.0002133337 0.00017100884 -1.0406587e-05 0.00043977814 0.0005916268 0.00032678724
0.00018485592 -0.00051426113 -3.5042453e-05 -0.0005226797 0.0009154749 -0.0009606024 -0.0005887658 -0.00011700435
-0.0005101835 0.0001478519 -0.0001175377 -0.00020753451 0.0003794368 -0.00038948897 -0.00073589507 -0.000111397036
-2.6170259e-05 -0.0006992436 0.00016974432 -0.0001770112 0.00086366583 -0.00036317587 -0.0006759124 -0.00046038686
0.00042798565 -0.0005140783 -0.0009520795 -0.00030113244 -0.00040164377 -2.579718e-07 9.978189e-05 -0.00036783094
0.0005813965 -0.00041072836 -0.0012166658 -0.00036226923 4.0143525e-05 -0.00019324593 8.986206e-05 0.00036643038
0.0002992349 -0.00048197558 2.9021086e-05 -7.421485e-05 -0.000905651 0.00039036793 0.00032040253 -0.00038078942
-0.0001422505 -0.0006894005 -0.00081071083 0.00016104006 -0.0003768874 0.0011106501 0.000893267 0.0006634356
0.00078128075 -0.0003185371 -0.00046858 -0.0012753728 -0.0003844518 0.00041167304 1.7126024e-05 0.0002680354

base_model.model.transformer.h.10.attn.c_attn.lora_A.weight f4 [4, 768]
00000000: d0dc fbbc 9c09 60bc 2a7d 20bc 2e55 33bb
00000010: a847 f5bb 74e4 a53c 24a6 1b3d eaf1 723a
00000020: cedb a9ba 3551 f43c c415 d3bb 8cf9 ea3c
00000030: 7ea4 dabc ece0 3bbb 21c9 c3bc 2e29 c5bc
00000040: d1ac eb3b 306e 023d 438b 8c3c 943b da3b
00000050: 0cf0 9f3b 4c58 adbc 8355 813c b440 3a3c
00000060: ab66 56bc 1f4f 05bd 5358 e93c 3b05 a43b
00000070: a448 ef3c dd2d 5f3b 4df5 4ebb fd84 dabc
00000080: 218e 903a 9316 0cbc 3631 b6bc 5bca fb3c
00000090: 36b4 943c 7bb6 aa3c 10d0 8c3c d250 933c
000000a0: 6fdf 5dbc 991a 5c3c ce4c a9b8 0722 d9bc
000000b0: 2251 b83c ffab 8dbc 704e 94bc 35ca e1bc
000000c0: 0748 ba3c 08f2 693b 88df 003d c64c 43bc
000000d0: 5df9 f93b e7df 1c3c 1b83 e03c 89cc 913b
000000e0: 4f6b cebc 7e90 96bc d761 8bbc cb87 99bc
000000f0: 0f69 a4ba d43b e7bc 17f8 4a3b 9980 fbbc
00000100: a229 ecbc 386d e93b cf00 f43c ce2a 9ebc
00000110: c704 abbb b2fa bebc 31c8 a83c 062a b63c
00000120: 53d6 c43b 0e10 8a3c 3052 bc3c 387f 223c
00000130: 0259 c63c 3bd4 cbbb 315d dfbc a187 9e3c
00000140: 1e6a c3bc 233a c23c 6f2d a3bc a86b 963c
00000150: 7045 873c 8a00 04bd d28a 5c3c 9ade 2dbc
00000160: 4ae7 1bbc 3eea 16bd 76ad c9bc 9312 10bd
00000170: 4d6f a93b 43c5 143d 18eb 62bc 6695 0fbd
00000180: 1085 34bc 72df 1d3d 9cbd b1bb d481 123d
00000190: 4103 d43c aaed b33c 3b52 96bc 658d f33c
000001a0: fd1c 93bc acbc 563c 70d3 b8bc 61ab ee3c
000001b0: f69b cc3c ccbb e43c 140b 96bc 60cd d73c
000001c0: e01f 3bbc 2a18 f93b 08d7 ee3c d856 393c
000001d0: 057c a83c a717 113c e58d d6bc 4b08 f5b9
000001e0: fd49 34bc 7b7e f43c b333 1b3d 2d61 8a3c
000001f0: 3db5 033d 6aa0 463c 1759 adbc f810 5a3c
00000200: b321 9fba 1bcd 6bbb b26a 5abc c004 98ba
00000210: 3e41 80bc 0628 e73c 30d3 a93c 5a4f 84bb
00000220: 6989 b23c 1019 d13c 5c6f a3bc 1be4 eb3c
00000230: bfbe c0bc 7fae 91bc 1230 0c3d 223e d73c
00000240: 4e6a 163c a1e7 023c 2833 873b 4974 e9bb
00000250: 6f4c be3b a319 0f3d dceb e3bc 0eb9 483c
00000260: ad0e b5ba 5196 48bb 8ef9 d1bc 6835 24bb
00000270: 8429 823c 2eba e93c 7de4 503c 600b 21bc
00000280: a3f3 b53c 209a 95bc 7286 083d 92df 0dbd
00000290: 2983 bfbc 0e0b d9bc 3b60 7f3c a60d 97bc
000002a0: 8948 c83c e556 693b 324e 05bd 5bf1 96bc
000002b0: c4bf de3c 372d e7bc cfe4 803c ea57 bcbb
000002c0: b5e0 d13c ce06 5f3c a8de abbc 8234 adbc
000002d0: 439c e43c 4bb9 8f3b 0599 bbba 8e3a 8dbc
000002e0: 21f4 193c d29d 53bb 040f e5bc 59af 743c
000002f0: 587f 46bc 3807 093d f336 0c3c 2186 c03c
00000300: 81e1 e73c 96b1 0d3d 6907 62bc 77bf f53c
00000310: 1c37 b0bb 52c0 e13c 65a8 eb3b 7730 cf3c
00000320: 92c6 17bc d0ed 693c 40f7 43bc 1fae 0b3d
00000330: 947f 0abd fb46 a5bc 75e6 963b 7681 f0bb
00000340: c2d6 0c3d c152 12bd 2c09 3cbc 0e2d 25bc
00000350: ad85 8cbc 060a d13c f213 03bd da3e 093c
00000360: 95c0 7cbb 4207 993c 411c fe3b efe9 60bb
00000370: f702 ac3c c24b c23c 34fa 6c3c 4d50 a7bb
00000380: 3c74 a0bc eb43 0d3c 1827 033b 42ba e23c
00000390: f620 1d3b 8cb3 9f3c e497 b43c fec7 0e3c
000003a0: 8445 dd3c 1819 bc3c c19e 13bd bbfd 87b6
000003b0: 7774 c43b f449 0bbd e4ae 443c 9bad f2bc
000003c0: 8a02 74bc 80f2 c1bc 2cf7 96bc 448e 06ba
000003d0: a506 0e3d d101 243d ec38 033d 6b14 d93c
000003e0: f24c 56bc ae41 cbbb 1b7e f63b 943a 8a3c
000003f0: b102 b1bc 512d b4bc e399 fe3c f08d 74ba
-0.03074494 -0.013674166 -0.009795466 -0.0027364003 -0.0074853487 0.020250537 0.03800024 0.00092676154
-0.0012959184 0.029823879 -0.0064418036 0.028683446 -0.026689764 -0.0028668 -0.023899617 -0.024067488
0.007192232 0.031843364 0.017156249 0.0066599343 0.0048809107 -0.021160267 0.015787845 0.0113679655
-0.013086001 -0.03254616 0.0284845 0.0050055063 0.029209442 0.0034054436 -0.0031579316 -0.026674742
0.0011028686 -0.008550304 -0.022240262 0.030736139 0.018152338 0.020838967 0.017189056 0.017982874
-0.01354204 0.013434076 -8.072854e-05 -0.026505483 0.022499625 -0.017293928 -0.018103808 -0.02756224
0.022739423 0.003569724 0.031463176 -0.01192016 0.0076286034 0.009574867 0.027406266 0.0044494313
-0.025197653 -0.018379446 -0.017014427 -0.018741509 -0.0012543517 -0.02822677 0.0030970627 -0.030700969
-0.028828446 0.0071236156 0.029785542 -0.01930752 -0.0052190754 -0.0233129 0.020603271 0.022236835
0.0060069948 0.016853359 0.022988409 0.009918027 0.024212364 -0.006220368 -0.027266117 0.019351782
-0.023854312 0.023709362 -0.019919125 0.018361881 0.016512603 -0.032227077 0.013460832 -0.010612154
-0.009515593 -0.036844485 -0.024618845 -0.035173964 0.005170739 0.036320936 -0.013849996 -0.035054587
-0.011018053 0.038543172 -0.0054242145 0.035768345 0.025880458 0.021963913 -0.018349757 0.029730508
-0.017958159 0.013106506 -0.022561759 0.029134454 0.024976712 0.02792158 -0.01831583 0.026343048
-0.011421174 0.0076017575 0.02915527 0.011312209 0.02056695 0.008855737 -0.026190707 -0.0004673622
-0.011003968 0.029845467 0.0378911 0.01689204 0.032155264 0.012123207 -0.021160645 0.01330971
-0.001214078 -0.0035980407 -0.013331102 -0.0011598095 -0.01565611 0.028217327 0.020730585 -0.0040377798
0.021794038 0.025524646 -0.019950561 0.028795293 -0.023528455 -0.017783402 0.03422553 0.026274744
0.009180618 0.007989795 0.0041259713 -0.007124458 0.0058074514 0.03493656 -0.027822427 0.012251152
-0.0013813578 -0.0030607174 -0.025631692 -0.0025056247 0.015888937 0.02853116 0.012749788 -0.009829372
0.022210902 -0.01826197 0.033331342 -0.03463704 -0.023377972 -0.02649453 0.015586908 -0.018439125
0.02444865 0.0035604772 -0.032545276 -0.018425634 0.02719105 -0.028219802 0.015734104 -0.005747785
0.025619844 0.013612462 -0.020980194 -0.021143202 0.027906543 0.0043861023 -0.0014312571 -0.017239835
0.009396584 -0.0032290113 -0.027961262 0.014934384 -0.012115322 0.03345415 0.008558023 0.023501458
0.02830577 0.034593187 -0.013795712 0.029998524 -0.0053776633 0.027557526 0.007191705 0.025291665
-0.009263651 0.01427789 -0.011960804 0.0341016 -0.033813074 -0.020175448 0.0046051093 -0.0073396517
0.034384497 -0.03572345 -0.011476796 -0.010081543 -0.017153585 0.025517475 -0.032001443 0.008376801
-0.0038566936 0.018680219 0.007754833 -0.0034319123 0.020997507 0.023717765 0.01446395 -0.005106008
-0.019586675 0.00862215 0.0020012315 0.027676705 0.0023975945 0.019494794 0.022045083 0.008714674
0.027010687 0.022961184 -0.03604007 -4.0528516e-06 0.005995329 -0.034006074 0.012004588 -0.029623797
-0.0148931835 -0.023675203 -0.018428408 -0.00051328936 0.034674305 0.040040795 0.032036707 0.026498994
-0.013079869 -0.006202898 0.007522357 0.016873635 -0.021607729 -0.021994265 0.031079238 -0.00093290117

base_model.model.transformer.h.10.attn.c_attn.lora_B.weight f4 [2304, 4]
00000000: a3d8 8f3a 3914 76ba 1c11 8fba 94c3 bf39
00000010: 8cc4 d4b9 0502 baba 393c 8d3a c9e6 beba
00000020: 1c69 a5ba 0f13 af3a 16b0 293a f907 d83a
00000030: 20bb f4ba d106 0c3b e701 523a fc5e b33a
00000040: ed8d 2c3b f0c0 15bb 1c9b 82ba 4ff4 02bb
00000050: f1a3 07bb be7c ec3a 47cf f13a fdd3 363a
00000060: a329 0cbb 85eb 0a3b 5a33 b23a 0985 a03a
00000070: 7b89 06bb 668d fb3a 4bdc b43a c1f1 b93a
00000080: 1ee1 1539 00fa a93a 0c8d 27b8 2e29 a83a
00000090: 8bb1 5b39 95f2 2c3a 756a 37ba 9099 cf3a
000000a0: f2c1 a337 a652 763a bb12 a23a a388 bab9
000000b0: 407d 0f3b 132c aeba 7012 9cb9 7a99 a2ba
000000c0: 3c13 173b 5bc3 91ba bc94 a2ba fbf4 3cba
000000d0: dda2 abba 57b8 003b e541 c03a c7cd 833a
000000e0: e8bc 1cbb 61a4 153b b280 a83a 26ae 003b
000000f0: 1850 a83a 9857 b4ba 7756 bcba 7403 c3b8
00000100: 18ac 733a b013 deba e57f 90ba 8bde a8ba
00000110: 37ef 25bb 5616 053b a111 953a ab9e cd3a
00000120: 1368 0c3b 365d 08bb fc62 94ba 2119 d0ba
00000130: 9984 9dba 2696 2b3a 7720 9c3a 7b46 90b8
00000140: b2db 183b 5227 10bb a9b5 99ba 5a59 ceba
00000150: f6e0 003a fe30 c4ba 9baa afba ba66 60ba
00000160: 0b0d 333b 3fe3 f6ba 3e7c 6dba e386 b3ba
00000170: 651b fcb9 7b89 abba d27a 5d3a bbcc faba
00000180: 3edc 303b e370 04bb b649 91ba fd8a e2ba
00000190: 290a f73a 595a e2ba b933 06bb d0dd 73ba
000001a0: 7986 b2ba 4fb5 7c3a bf04 eb3a 2f20 a739
000001b0: 0f27 12ba 2431 fbba 8a3d 0c3a caf8 b4ba
000001c0: d823 6839 bd41 14ba a80c b6ba a6f0 523a
000001d0: b9ab 22bb b57c c93a be06 2d39 3816 8c3a
000001e0: d5e7 d23a d986 d9ba 5cdb c3ba 290d 28ba
000001f0: fc88 fcb9 aba0 883a b54b 9c3a 1426 3cba
00000200: 29ea be3a a36d e3ba 9d77 8439 9a9c cdba
00000210: a297 0d3b 2f80 13bb 7ccd 77ba 32e7 a7ba
00000220: 5fba 2f3b 3161 e0ba c914 23ba 8457 d6ba
00000230: 64aa 20ba cc75 d93a fcaf d639 cee2 d13a
00000240: e79b efba 608f de3a a3b7 77ba f1f8 a23a
00000250: 1d7e 98ba bac6 973a 3b31 6f3a be5d 9139
00000260: 6a7e fd3a 216c 9dba 4d49 44ba acf6 ff37
00000270: 864b f1ba 7d21 7f38 a385 933a 9ff3 d7b9
00000280: b3b4 db39 3c8a 55ba f9f2 9039 5512 d3ba
00000290: 2fa6 1abb 3391 ca3a 58e3 1bba 3275 a43a
000002a0: 141a 1d3b 3288 c6ba d519 6eba 5dff 9eba
000002b0: 5da0 a537 ca4b b239 8edb 67b9 3b70 ba3a
000002c0: d538 7b3a 025b 0bba 524e d2ba d8ca 333a
000002d0: bf3c d13a 7499 2cba 5d78 593a 3126 35ba
000002e0: 6de5 8139 1636 86ba 5bc6 a5ba 9658 4fba
000002f0: 8f5e 18bb 01ba eb3a bf09 9c3a 91e4 c73a
00000300: 07bc 66b9 7ee9 9638 b8f1 8bba 886d 813a
00000310: a816 f8ba 9755 713a d0ad 5ab9 9ba1 833a
00000320: 77d9 3639 c0c6 55ba 4832 0fba 10ba 5a39
00000330: 0c0d 10bb be08 0d3b f0a3 ef39 8f7d e23a
00000340: 47eb 383a 365c e83a 7c7d 9cba 6328 793a
00000350: 68b4 83ba bb00 4c39 c9ec bc3a aeb1 5aba
00000360: 918f d9ba 47ac 1a3b d4dd ab3a c8f2 d03a
00000370: 724c f6ba 2d9c 253a ec16 023b 8102 b8b9
00000380: 84b6 0aba 3f85 b1ba d06a 0b3a bc61 d1ba
00000390: 9b97 32b9 4e63 03ba 4f76 c33a 5661 3aba
000003a0: 45ec d83a d037 68b9 d287 e5ba 97fc 53ba
000003b0: cbc3 efba 3355 063b b9b3 463a 884d 9b3a
000003c0: 5b57 003b a0f4 00bb 896a 93ba cc7a e0ba
000003d0: 0b58 013b 0e78 afba 7a6b deb9 063d 6cba
000003e0: a87c 0d3b b7fa 18bb 810d 15ba e2f5 a9ba
000003f0: 94cf 7b3a ef51 adba f397 c4ba 54af 22ba
0.0010974597 -0.00093871687 -0.0010915133 0.00036576076 -0.0004058223 -0.0014191276 0.0010775394 -0.0014564629
-0.0012619826 0.001335712 0.0006473077 0.0016481868 -0.001867149 0.0021366368 0.0008011148 0.0013684924
0.0026329712 -0.0022850595 -0.0009964439 -0.0019982045 -0.0020697082 0.0018042547 0.0018448614 0.0006974338
-0.0021387122 0.002119751 0.0013595626 0.0012246679 -0.0020528722 0.001919192 0.0013798563 0.0014186428
0.0001429361 0.0012968183 -3.9947263e-05 0.0012829655 0.00020951607 0.0006597427 -0.00069967593 0.0015838612
1.9521427e-05 0.0009396471 0.0012365201 -0.00035578487 0.0021894723 -0.0013288282 -0.00029768376 -0.0012405359
0.0023052236 -0.0011120843 -0.0012403945 -0.0007208136 -0.0013094802 0.0019641125 0.0014668076 0.0010055833
-0.0023916308 0.0022833573 0.0012855737 0.001963505 0.0012841253 -0.0013759015 -0.001436903 -9.298968e-05
0.00092953583 -0.0016943123 -0.0011024444 -0.0012883706 -0.0025319585 0.0020307503 0.0011373052 0.0015687546
0.0021424338 -0.0020807511 -0.0011321004 -0.001587663 -0.0012017667 0.0006545506 0.0011911531 -6.879583e-05
0.0023324308 -0.0021996093 -0.0011727113 -0.0015743182 0.00049163343 -0.0014968214 -0.0013402285 -0.00085602293
0.0027321007 -0.0018836035 -0.0009059346 -0.0013696816 -0.00048085596 -0.0013087237 0.00084487826 -0.0019134501
0.0026986743 -0.0020208887 -0.001108459 -0.0017283853 0.0018847632 -0.0017269357 -0.0020477606 -0.0009302767
-0.0013620398 0.0009640054 0.0017930492 0.000318767 -0.0005575278 -0.0019164425 0.0005349746 -0.0013807055
0.00022138597 -0.0005655548 -0.001388927 0.00080467237 -0.0024821593 0.0015372249 0.00016501077 0.0010687774
0.001609082 -0.0016595974 -0.0014942694 -0.00064106524 -0.00048167247 0.0010423859 0.0011924418 -0.0007177305
0.0014565635 -0.00173514 0.0002526612 -0.001568693 0.0021605273 -0.0022506823 -0.0009452922 -0.001280999
0.0026813967 -0.0017118809 -0.0006221054 -0.0016352986 -0.0006128906 0.0016590892 0.0004094838 0.0016013028
-0.0018280715 0.0016979985 -0.0009449666 0.001243381 -0.0011634264 0.0011579611 0.00091244624 0.000277264
0.0019340042 -0.0012010374 -0.00074877293 3.0513234e-05 -0.0018409349 6.0827926e-05 0.0011255037 -0.00041189507
0.00041905566 -0.00081459037 0.0002764685 -0.0016103486 -0.0023597588 0.001545465 -0.00059466576 0.0012547134
0.0023971843 -0.001514679 -0.0009082829 -0.0012130548 1.9744208e-05 0.00034007273 -0.00022111667 0.0014224121
0.0009583359 -0.00053159904 -0.001604507 0.0006858534 0.0015963538 -0.00065841456 0.00082958286 -0.0006910293
0.00024775733 -0.0010239508 -0.0012647616 -0.00079096237 -0.002324972 0.0017984511 0.001190476 0.0015250613
-0.00022004555 7.196049e-05 -0.0010676896 0.0009874562 -0.001892765 0.0009206174 -0.0002085485 0.0010042669
0.00017437885 -0.0008154921 -0.00054625096 0.00020859414 -0.0021980433 0.0021520103 0.00045707775 0.0017279851
0.0007054102 0.0017727676 -0.0011939253 0.0009504614 -0.0010048272 0.00019455228 0.0014413829 -0.00083425164
-0.0016598572 0.002360122 0.0013112375 0.0015941495 -0.0018791093 0.00063175225 0.0019850088 -0.0003509708
-0.0005291479 -0.0013543739 0.00053183455 -0.0015974562 -0.0001703188 -0.0005012051 0.0014912578 -0.0007109841
0.0016549906 -0.00022146036 -0.0017511791 -0.000808665 -0.0018292604 0.002049756 0.00075798813 0.0011848668
0.0019583318 -0.0019677058 -0.001124696 -0.001712644 0.0019736316 -0.001338722 -0.00042423216 -0.0009011779
0.0021589193 -0.0023342797 -0.0005685911 -0.0012966956 0.00096058217 -0.0013223271 -0.0014998898 -0.00062059355

base_model.model.transformer.h.11.attn.c_attn.lora_A.weight f4 [4, 768]
00000000: cef2 c8bc c6ae 0c3d 0087 a63c e457 dbbb
00000010: 3ca4 1abd a70a e0bc da11 053d 4429 f13c
00000020: f68f 09bd 907d 843c ddab 0bbd b805 823c
00000030: 20bc 1c3d d1fd fcbc c9c8 69bc 5236 023d
00000040: 293b e3bc 5fc0 2abc b68b 093d e3c8 97bb
00000050: 12ed e03b 21ce 853b 122b 833c 9d91 003d
00000060: 4f2d 5abc 2d83 9ebc 5f0b 37bc 900c f23c
00000070: a4d5 68bc ad80 0ebc f818 02bd 3672 243c
00000080: a3c4 173d 13b4 f1ba 4c5f d4ba e3c2 a8bc
00000090: 140a e4bc c655 813c 3b05 96bc 8553 46b9
000000a0: ae35 02bd 1474 213d 5ecb c2bb 8e71 3ebc
000000b0: a4e6 91bc 218a 14bb 7435 333c d01e 24bc
000000c0: da33 9cbc b914 433c bbb6 fcbc 97ab e8bc
000000d0: 18ac d1bc e267 01bd 7834 6bbc c401 aebb
000000e0: 4be6 f23c 928d cc3b f49a a83b dba9 9d3c
000000f0: 51dc f63c b97a 9abc 1842 80bb 384f 873c
00000100: 37c7 003d 8334 d23c 89ab cdbc 441f 223d
00000110: d5ea 393c 9be1 893b 4f92 a3bb 4488 b7bc
00000120: 0f63 dabc 9dce ae3c 70e4 983c c97b 4c3c
00000130: 1c76 ac39 dae1 7f3b ffa6 953c 54ca e53b
00000140: 5600 c0bc 75ae 003c 3ae1 d0bc 7675 69bc
00000150: 6675 e83b 01db b33b ec99 603c 026c e53c
00000160: 06be e93c e710 b0bc 5355 d53c 1ec2 7b3b
00000170: c65a a3bc 2daf 9d3c 3461 acbc 09b0 343c
00000180: e62f b83c 202f 803b 7b7f e9bc d3a2 7fbc
00000190: 49d3 303c 52e4 1a3d 3798 943c 0bcd d53c
000001a0: 340b 08bc 4258 8abb e551 ec3c c04c f1bc
000001b0: 87a9 eebc 3150 db3b 8cc9 3abc 3adf febc
000001c0: f565 15bc 5f2b 16bb 6ace f3bc 181b fa3c
000001d0: e103 15bd 9f31 343b bfeb a5bb d7ab 373b
000001e0: f81c 103d d09d e0bc 15bd 0abd fa5f e1bc
000001f0: 309d 063d 48d8 c7bc 9bc6 76bc 0efc cc3c
00000200: 9707 eabc 973d 4bbc 6b94 aabc 968d 703c
00000210: 75b7 44bb 13b5 6bbc 80e6 2d3c 5172 9237
00000220: 0faf e93c c2bb 713c 0082 e3bc a3ab 003c
00000230: a6f0 aebc 9759 bebb 9112 b43b 7b40 2abc
00000240: 5206 1e3c 3448 97bc 5bd9 06bc 2384 ab3c
00000250: 5419 d03c d650 9f3b 6150 0cbd f945 c6bc
00000260: cc0a d4bc 3140 c5bc 2e4c 713c 9335 d03c
00000270: df29 e6bb 3e63 02bd c228 823b a959 1a3d
00000280: aa3c 993c e29c 083c 7c3d 5e3c f743 f13c
00000290: 6514 91bc 0160 d83c 97d0 fcbc 85c5 20bd
000002a0: 3828 473c d176 d9bb fd2d 1c3d 6cf5 21bc
000002b0: fb82 613b da5e f13c 3221 c43b bce7 d7bc
000002c0: 40d9 07bd 561e f3bc d7ba b43b 8dfa 19bd
000002d0: f86e e1bc 7eea 0fbc 9823 67bc 62cc 343c
000002e0: c220 f4bc 4cc2 10bd 0e96 183c 9255 8d3c
000002f0: 2218 893c b056 5dbc 18c5 d9bc 4396 473c
00000300: 48f2 9ebc 501f f73c 2f8c 6c3c cf6a 673c
00000310: ea5a 873c 0840 983c 5a01 70bc b6b5 853c
00000320: 0488 e33c aed0 e7bb 7467 ec3c 9aa3 9f3c
00000330: 7124 133d 276b 5dbc 9531 443c efdf 8fbb
00000340: 0c6c 1dbd 8c9f e0bc 0946 fabc 44c4 133b
00000350: ea0e 04bc 425e 14bd 5949 473c 5889 1f3c
00000360: a206 b2bc dbe1 bc3c 8830 12bd 25c9 cc3a
00000370: c3a7 00bd e01c 97bc e2a6 b13c 7b1c 8e3c
00000380: ad36 1abc 01df 26bc 9606 54bc 21bf 06bc
00000390: 7f9d 1fbd 1b00 d03c 4aa3 3f3c db2d 1e3c
000003a0: 756c f73b 0c98 fabc ea9d fdbc c71e f4bc
000003b0: 4968 d43c ee49 4a3c 1cdf 43bc a1cc c03c
000003c0: 553b c0bc f958 0fbc 3e7e 00bd 0095 32bc
000003d0: fbad 97bb 40e0 1ebc ab89 c23c 2609 3b3c
000003e0: f4b3 b83c cb04 a2bc 4aa3 4fba 4f57 3c3c
000003f0: feaa 81b9 bc57 bdbc 0c97 1dbd 058d af3b
-0.02452984 0.034346364 0.020328045 -0.006693827 -0.037754282 -0.02734883 0.032487728 0.029438622
-0.033584557 0.016173154 -0.03409945 0.015871868 0.038265347 -0.030882748 -0.014269062 0.031790085
-0.02773817 -0.010421841 0.033580504 -0.004632102 0.0068641985 0.0040834104 0.016011748 0.031388868
-0.0133164665 -0.019349659 -0.011172145 0.029547006 -0.014211092 -0.008697671 -0.031762093 0.010036996
0.03705276 -0.0018440507 -0.0016202717 -0.020600742 -0.027836837 0.01578797 -0.018313041 -0.00018913865
-0.031789474 0.03941734 -0.0059446534 -0.011623753 -0.017810173 -0.002266534 0.010938037 -0.010017112
-0.019067694 0.011906796 -0.030848851 -0.028402133 -0.025594756 -0.03159321 -0.014355771 -0.005310269
0.029650828 0.0062424624 0.005145425 0.019246032 0.030134352 -0.018857347 -0.003914129 0.016517267
0.031439986 0.025659805 -0.025106208 0.0395806 0.011347492 0.0042078025 -0.0049918066 -0.022403844
-0.026658563 0.021338755 0.018663615 0.012480685 0.00032894395 0.003904453 0.018268107 0.007012645
-0.02343766 0.007854094 -0.025498021 -0.014249196 0.007094073 0.005488754 0.013708573 0.028005604
0.028532993 -0.021492435 0.026041662 0.0038415263 -0.019940745 0.01924857 -0.021042444 0.011028298
0.022483777 0.0039118677 -0.02850317 -0.015602785 0.010792562 0.0378154 0.018138988 0.026098749
-0.008303452 -0.004221947 0.028847644 -0.029455543 -0.029133571 0.006692909 -0.011400592 -0.031112302
-0.009118547 -0.0022914035 -0.029761512 0.030530497 -0.036380652 0.0027495397 -0.0050635035 0.0028026009
0.035183877 -0.027419 -0.03387173 -0.027511586 0.03286475 -0.024395123 -0.015062 0.025022533
-0.028568072 -0.012404821 -0.020822724 0.014682194 -0.0030016575 -0.014386433 0.0106140375 1.7457789e-05
0.028525857 0.014754238 -0.02777195 0.007853421 -0.021354984 -0.00580902 0.0054953774 -0.01039135
0.009645062 -0.018467046 -0.0082305325 0.020937031 0.025402702 0.0048619313 -0.034256343 -0.024203287
-0.025884055 -0.02407846 0.014727635 0.025416171 -0.0070240344 -0.031832926 0.003972144 0.037683163
0.018705685 0.008338185 0.013564464 0.029451353 -0.01770992 0.026412966 -0.030861182 -0.03925087
0.012155585 -0.0066364785 0.038129795 -0.009885173 0.0034410346 0.029464174 0.0059854025 -0.026355617
-0.03316617 -0.029677551 0.005515437 -0.03759246 -0.027518734 -0.008783935 -0.014107607 0.011035057
-0.029800776 -0.035341546 0.00931312 0.017252717 0.01673514 -0.013509437 -0.02658324 0.012181821
-0.019402638 0.030166298 0.014437719 0.014124586 0.016522843 0.01858522 -0.01464876 0.016321998
0.027774818 -0.007074437 0.028857924 0.019487191 0.035923425 -0.013514317 0.011974712 -0.0043907086
-0.03843312 -0.027419828 -0.030550973 0.0022547403 -0.008060196 -0.036222704 0.012163484 0.009737335
-0.021731678 0.023056915 -0.035690814 0.0015623911 -0.03140999 -0.018446386 0.021686021 0.017347565
-0.00941245 -0.010185004 -0.012941023 -0.00822428 -0.03896856 0.025390675 0.011696646 0.0096544875
0.007550771 -0.03059008 -0.030959088 -0.029799832 0.025928633 0.012346728 -0.011955049 0.023535075
-0.023465792 -0.00874924 -0.031370394 -0.010899782 -0.0046288944 -0.00969702 0.023747286 0.011415755
0.022546746 -0.019777676 -0.00079207553 0.011495425 -0.00024732196 -0.023113124 -0.038474128 0.005357387
